checkpoints/checkpoint.pth (torch, 754063 bytes, 12 tensors)

l1.weight f4 [512, 26]
0	0x3e42ff55	0.19042714
1	0x3e227bf8	0.15867603
2	0xbcfc6c1c	-0.03081327
3	0x3e59bf18	0.21264303
4	0xbcaa3a4a	-0.020779748
5	0x3d113dfb	0.0354595
6	0xbdbb9cb0	-0.09160745
7	0x3e14bd44	0.14525324
8	0x3e443c3e	0.19163606
9	0xbe3ac86a	-0.18240514
10	0x3e5108e6	0.2041355
11	0x3ca3e92e	0.02000865
12	0x3e309c39	0.17247094
13	0x3d1f144e	0.038837723
14	0x3de022b4	0.10944119
15	0xbc92e437	-0.017931087
16	0x3e10df72	0.14147738
17	0x3d32f6f2	0.043692537
18	0xbdbc8d7b	-0.09206673
19	0x3d92e083	0.071717285
20	0xbddf0fb0	-0.10891664
21	0xbcc6109b	-0.02417784
22	0xbdbd1683	-0.092328094
23	0x3e215918	0.15756643
24	0xbe3303c8	-0.17481911
25	0xbd96904d	-0.07351742
26	0xbd92538e	-0.07144843
27	0xbe018e13	-0.12651853
28	0xbb88e629	-0.004177828
29	0xbe4a6384	-0.19764525
30	0x3e275222	0.16339925
31	0xbe3eddc1	-0.1863928
32	0x3e11e558	0.14247644
33	0x3d04aaaa	0.03238932
34	0xbd07a4f1	-0.033116285
35	0x3dd4b010	0.10385144
36	0x3d3205c2	0.043462522
37	0x3e1a0a46	0.15042982
38	0x3c66f1f7	0.014095775
39	0xbda2f1b0	-0.079562545
40	0x3d3f7f6d	0.046752382
41	0xbd511da9	-0.051053677
42	0x3dcbddec	0.099544376
43	0x3e2afddb	0.166984
44	0x3de6e07e	0.11273287
45	0xbdb01ac6	-0.08598857
46	0x3df2ff54	0.11865106
47	0x3d0a6f8a	0.03379778
48	0x3d968c19	0.0735094
49	0xbdeea624	-0.116527826
50	0xbe55bd9b	-0.2087311
51	0xbdb39d5d	-0.08770249
52	0xbe14812b	-0.14502399
53	0x3e31e0c5	0.17370899
54	0x3d983468	0.07431871
55	0x3deb4438	0.11487621
56	0x3db8006d	0.08984456
57	0xbc5b10bf	-0.013370692
58	0x3e364db9	0.17803086
59	0xbe0ee252	-0.13953522
60	0x3cf62ef5	0.030051688
61	0xbe25180b	-0.16122453
62	0x3d930cf0	0.07180202
63	0xbdc24507	-0.09485822
64	0x3d6f26b3	0.058386516
65	0xbd2f9a92	-0.04287202
66	0x3e364598	0.17799985
67	0xbdd4bcb9	-0.103875585
68	0xbe0191d1	-0.12653281
69	0xbdd0f564	-0.102030545
70	0x3e1ed9ca	0.15512767
71	0x3daadc87	0.083428435
72	0x3e3e47da	0.18582097
73	0xbe1e05a7	-0.15431844
74	0xbe424da3	-0.18974929
75	0xbe0acc1e	-0.13554427
76	0xbdf874fd	-0.12131689
77	0x3dcb62f0	0.0993098
78	0x3d954541	0.072886
79	0x3e2c4138	0.16821754
80	0xbdfe8d36	-0.124292776
81	0xbe234196	-0.15942988
82	0x3daf8189	0.08569629
83	0xbd834038	-0.06408733
84	0x3dd82ec8	0.10555798
85	0xbd9454ed	-0.07242761
86	0x3e0095c6	0.12557134
87	0xbe2ffeb7	-0.1718701
88	0xbdf31871	-0.11869896
89	0x3dcb828e	0.09937011
90	0x3c1075f2	0.008817183
91	0xbd29839b	-0.041385274
92	0x3db78452	0.08960785
93	0x3da2ebdb	0.07955142
94	0xbde1f3b1	-0.110328086
95	0xbde114b4	-0.10990277
96	0x3e695212	0.22785214
97	0xbd91f8d0	-0.07127535
98	0xbd4d8a0a	-0.050180472
99	0xbe40e29f	-0.18836449
100	0xbdf875fb	-0.12131878
101	0x3d67ffb3	0.05664034
102	0xbcd5ee26	-0.026114535
103	0xbe0b3891	-0.13595797
104	0x3caca344	0.021073945
105	0xbdddd132	-0.108309165
106	0xbe33e92c	-0.17569417
107	0xbdde9b88	-0.10869509
108	0xbe302d5c	-0.17204803
109	0xbe089045	-0.13336284
110	0x3e622a6d	0.22086497
111	0x3d1d5131	0.03840751
112	0x3d99f1cf	0.075168245
113	0xbe55b6dd	-0.20870538
114	0xbe069644	-0.1314326
115	0xbd9a0871	-0.07521141
116	0x3c5db945	0.013532941
117	0xbe1a81d0	-0.15088582
118	0xbdc5c55a	-0.096567824
119	0xbe036c97	-0.12834392
120	0x3c76c100	0.015060663
121	0xbd689e3b	-0.056791525
122	0xbbaf0058	-0.005340617
123	0xbdefe26f	-0.11713111
124	0xbdf33a37	-0.11876338
125	0xbdbc6b7f	-0.09200191
126	0xbd82ee0f	-0.06393062
127	0xbdff5d0c	-0.12468919
128	0x3e367423	0.1781774
129	0xbc3f1f10	-0.011665121
130	0x3e38d5d6	0.18050322
131	0x3d4e0d38	0.050305575
132	0xbe0b8a3e	-0.13626954
133	0x3e2aaf3e	0.16668412
134	0xbcc175c5	-0.023615727
135	0xbd86000c	-0.06542978
136	0xbe2165d9	-0.15761508
137	0xbe32e480	-0.17469978
138	0x3d36ba8b	0.044611495
139	0xbd5a66a3	-0.05332054
140	0x3de1ede5	0.11031703
141	0xbe461753	-0.19344835
142	0x3e3ab7bd	0.18234153
143	0xbe091750	-0.133878
144	0xbcee3587	-0.029078258
145	0x3d88d3d6	0.066810295
146	0x3d9d7413	0.07688155
147	0x3e405d90	0.18785691
148	0x3e2f0453	0.17091493
149	0xbdf2dfad	-0.11859069
150	0x3d32f769	0.04369298
151	0xbd3dbfae	-0.046325378
152	0x3b9bb0b1	0.004751288
153	0xbe13c665	-0.1443115
154	0x3e1c38a8	0.15255988
155	0xbdedec32	-0.11617316
156	0x3ddd0835	0.10792581
157	0x3d8051d8	0.062656105
158	0x3d96fe36	0.07372706
159	0xbdb45aa2	-0.08806349
160	0x3e45c5d3	0.19313745
161	0x3d091b7f	0.033473488
162	0x3d3d10ac	0.046158478
163	0xbe21e5e5	-0.15810354
164	0x3dacb74d	0.08433399
165	0xbd42f1f3	-0.047594022
166	0xbdb5a26d	-0.08868871
167	0x3e156357	0.14588676
168	0x3d330091	0.043701712
169	0xbdde1c4d	-0.10845242
170	0xbdab5138	-0.083651006
171	0xba5dfbd3	-0.00084680057
172	0x3de272de	0.110570654
173	0xbd1498d8	-0.036278576
174	0xbdf94ef6	-0.12173264
175	0xbd495bfb	-0.049159985
176	0xbe1b660f	-0.15175651
177	0x3db7dad7	0.08977287
178	0x3e2b0e1b	0.167046
179	0xbe2c9c70	-0.16856551
180	0x3d5ddbaf	0.054164585
181	0x3df3212f	0.11871564
182	0x3d6de5b5	0.058080394
183	0xbe0fa0f2	-0.1402624
184	0x3de65902	0.11247446
185	0x3dfedb1c	0.124441355
186	0x3dac70b9	0.08419938
187	0xbd1220a5	-0.035675664
188	0xbd929cc3	-0.07158806
189	0x3c66e406	0.014092451
190	0xbccbafee	-0.024864163
191	0xbd799584	-0.060933605
192	0x3e1c2f79	0.15252484
193	0x3e1f616f	0.15564512
194	0xbc6eef4a	-0.014583418
195	0xbd0f2477	-0.034946885
196	0x3ca5931c	0.020211749
197	0x3c0f9216	0.008762857
198	0x3d428588	0.047490627
199	0x3d946862	0.07246472
200	0xbe4407cf	-0.19143604
201	0xbd806e16	-0.06270997
202	0x3e23eb26	0.16007671
203	0x3da7e2af	0.08197533
204	0xbc85726e	-0.016289916
205	0xbde9924e	-0.114048585
206	0xbde5287c	-0.111893624
207	0xbe3e2d3e	-0.18571946
208	0xbd7ab183	-0.061204445
209	0x3dbb3a5e	0.09141992
210	0x3e09e84f	0.13467525
211	0x3de0235a	0.10944243
212	0xbe249e80	-0.16076088
213	0xbe088e8a	-0.13335624
214	0x3bcffc6e	0.0063472306
215	0x3e4054f5	0.18782409
216	0x3d2eebf2	0.042705484
217	0xbd5565c2	-0.052098997
218	0x3d9d8970	0.0769223
219	0xbddf457e	-0.109019265
220	0xbe06b392	-0.13154438
221	0x3e1ab7cf	0.1510918
222	0xbe045b6b	-0.12925498
223	0xbcc878f4	-0.024471737
224	0xbe6b9842	-0.230073
225	0x3e015665	0.12630613
226	0x3e010a04	0.12601477
227	0x3d795a94	0.060877398
228	0xbe20c092	-0.1569846
229	0xbe56ecde	-0.20988795
230	0xbe519ac1	-0.2046919
231	0x3e19a4e6	0.1500431
232	0x3dc0f072	0.09420861
233	0x3e3d59d2	0.18491295
234	0x3dc0a989	0.09407336
235	0x3da14ab4	0.078755766
236	0x3cc53f1e	0.024077948
237	0xbdef62e8	-0.11688787
238	0xbe0cd42e	-0.13752815
239	0xbe3d0510	-0.18458962
240	0x3e002ad8	0.12516344
241	0xbda2e949	-0.07954652
242	0xbd59c0f8	-0.053162545
243	0xbe129da1	-0.14317943
244	0xbd0c3d8e	-0.03423839
245	0xbe269227	-0.1626669
246	0xbe0a2661	-0.13491203
247	0x3dac672f	0.08418118
248	0xbd5d0eb5	-0.053969104
249	0x3dfc665d	0.12324212
250	0xbd8a3565	-0.067484654
251	0xbdf566e6	-0.11982517
252	0xbd5ad937	-0.05342981
253	0xbd8efba8	-0.06981593
254	0xbd6b7e2c	-0.057493374
255	0xbe2512eb	-0.16120498

l1.bias f4 [512]
0	0xbd0d04b6	-0.03442832
1	0xbd4adbf9	-0.04952619
2	0xbe2e8c9c	-0.17045826
3	0x3de9c31e	0.11414169
4	0x3c3b1e7e	0.011420844
5	0x3dbbb77e	0.09165858
6	0x3dea996b	0.114550434
7	0xbd839346	-0.064245746
8	0x3ccaf757	0.024776144
9	0x3e0d68e3	0.13809542
10	0xbe32808f	-0.17431854
11	0x3e4fce0f	0.20293449
12	0x3dd3f670	0.103497386
13	0xbd8a2eec	-0.06747231
14	0xbe2bf4d8	-0.16792619
15	0x3de8f7d0	0.113753915
16	0x3dd4a06d	0.10382161
17	0xbdca6057	-0.098816566
18	0x3e17749d	0.14790578
19	0x3d949e89	0.07256801
20	0x3e838266	0.25685424
21	0x3da5b081	0.08090306
22	0x3cd10ccd	0.0255188
23	0xbe3927cc	-0.18081588
24	0x3e349d07	0.17638026
25	0x3e2ca4db	0.16859762
26	0xbc69272e	-0.014230533
27	0xbbefe599	-0.0073210713
28	0xb94f41f6	-0.0001976563
29	0xbc80cdbb	-0.0157231
30	0x3de291a4	0.11062935
31	0x3d82c8d9	0.06385965
32	0xbe1e2e9d	-0.15447469
33	0x3e012897	0.1261314
34	0xbdb9572d	-0.090498306
35	0x3d8949ff	0.06703567
36	0x3db788e5	0.089616574
37	0xbd905400	-0.07047272
38	0x3e096099	0.13415755
39	0x3b74dade	0.00373619
40	0xbdb2b0b3	-0.08725109
41	0x3e305225	0.17218836
42	0x3e020da5	0.12700517
43	0x3e290a70	0.16507888
44	0xbdf5d5ea	-0.120036915
45	0xbe121e3a	-0.14269343
46	0xbe1a1144	-0.15045649
47	0x3e0225d6	0.12709746
48	0x3e121ca3	0.14268737
49	0xbde09a1e	-0.109668955
50	0x3da4138e	0.08011542
51	0x3d217142	0.03941465
52	0xbd5bb658	-0.053640693
53	0x3ce59848	0.028026715
54	0xbddacf50	-0.10684073
55	0xbd70d06a	-0.05879251
56	0x3e0bd178	0.13654125
57	0x3a43bc0e	0.0007466682
58	0xbddbd6f6	-0.1073436
59	0x3d4aa58a	0.049474277
60	0xbd1c94fe	-0.038228028
61	0xbdbafa6b	-0.09129795
62	0xbe3cd89b	-0.18442003
63	0x3b933b19	0.004493129
64	0xbe106b92	-0.14103535
65	0xbd86e36d	-0.06586347
66	0x3d71452c	0.058903858
67	0x3ca045a4	0.019564457
68	0xbdc0f950	-0.094225526
69	0x3d377820	0.044792295
70	0x3dd840ef	0.1055926
71	0xbc9e28d2	-0.019306574
72	0xbd99292e	-0.074785575
73	0x3d0fe91b	0.035134416
74	0x3d4204d0	0.04736787
75	0x3d8b2cd8	0.06795663
76	0x3e1f69c8	0.15567696
77	0xbc546901	-0.012964488
78	0x3dbd8d93	0.09255519
79	0xbd7aa901	-0.06119633
80	0xbb03a8ef	-0.0020089706
81	0x3e3232a3	0.17402129
82	0xbe254a61	-0.16141655
83	0xbdce6519	-0.100778766
84	0xbe2bdb47	-0.16782866
85	0x3e28ec10	0.164963
86	0xbcb8b179	-0.022545563
87	0x3e305098	0.17218244
88	0xbda6f68c	-0.08152494
89	0xbd9ef129	-0.077608414
90	0x3e0ce0da	0.13757649
91	0xbe412288	-0.18860829
92	0xbe4abaa2	-0.19797757
93	0xbe01eaa2	-0.12687162
94	0x3cd817e1	0.026378574
95	0xbe39c428	-0.18141234
96	0x3da2c910	0.07948506
97	0x3e416d13	0.18889265
98	0x3c4b6843	0.012414995
99	0xbd003023	-0.031295907
100	0xbe3a076f	-0.18166898
101	0xbbfd7401	-0.007734776
102	0x3c133f7c	0.008987304
103	0x3d55923a	0.052141406
104	0xbd7c2dfe	-0.0615673
105	0xbda0f8f9	-0.07859988
106	0xbdfd723e	-0.123753056
107	0x3e132646	0.14370069
108	0xbdca7227	-0.09885054
109	0x3d1603c3	0.03662468
110	0xbd1c8c13	-0.038219523
111	0xbd6a3828	-0.05718246
112	0xbc184668	-0.00929413
113	0x3e16d0b3	0.1472805
114	0x3e1a055c	0.15041107
115	0xbcb9d389	-0.022683876
116	0xbd0a748d	-0.033802558
117	0xbd820ee3	-0.06350496
118	0xbd9a8934	-0.07545701
119	0xbd2115f3	-0.039327573
120	0x3e114cc4	0.1418944
121	0x3d99aff0	0.075042605
122	0xbe095e33	-0.1341484
123	0xbd5b6656	-0.053564392
124	0xbe2e477e	-0.1701946
125	0x3e41e4f6	0.18934998
126	0x3cd3a32e	0.025834646
127	0xbd54ce3b	-0.05195449
128	0x3da89dac	0.082331985
129	0xbe2ef411	-0.17085291
130	0xbd24a4b7	-0.040196147
131	0x3cda868f	0.02667549
132	0x3e0a55b2	0.13509253
133	0x3e2b1796	0.16708216
134	0x3d659b27	0.056056168
135	0xbe3eda26	-0.18637905
136	0x3da09a2f	0.07841908
137	0xbdd7add7	-0.10531204
138	0x3e31e281	0.1737156
139	0xbd11c64e	-0.03558951
140	0xbd1eba7d	-0.038752068
141	0x3c6bba47	0.014387674
142	0x3e41ccfc	0.18925852
143	0x3d936dc3	0.0719867
144	0xbe10cab2	-0.14139822
145	0x3ce724b5	0.028215745
146	0x3dcc6059	0.09979314
147	0xbc364c5a	-0.011126602
148	0x3da04076	0.07824795
149	0xbe356064	-0.17712551
150	0xbde6466c	-0.11243901
151	0x3dee4895	0.11634938
152	0x3e7069f8	0.23477924
153	0x3e0235ce	0.12715837
154	0xbd94fd10	-0.0727483
155	0x3deb13f6	0.114784166
156	0xbdb1cde9	-0.08681852
157	0xbe13c2d2	-0.14429787
158	0xbe174c31	-0.14775158
159	0xbd03ce7a	-0.032179333
160	0x3d72c0e0	0.05926597
161	0x3c8b1a54	0.016980328
162	0x3e41bba6	0.18919238
163	0x3cd182fc	0.025575154
164	0x3e3ffd09	0.18748869
165	0xbe222314	-0.15833694
166	0xbda50d8f	-0.08059227
167	0x3c7ba472	0.015359031
168	0x3dbf746c	0.093483776
169	0x3d7a4fd1	0.061111275
170	0x3e4574c7	0.19282828
171	0xbddbcac3	-0.10732033
172	0x3e38cd0a	0.18046966
173	0x3d82ca30	0.063862205
174	0x3d818d18	0.063257396
175	0xbbb7e4e1	-0.0056120013
176	0xbe0fb568	-0.14034045
177	0x3e0e361a	0.13887826
178	0x3d7e1fa4	0.062041894
179	0x3e37face	0.17966768
180	0x3e0cd757	0.1375402
181	0xbe208fb0	-0.15679812
182	0x3e367cea	0.17821088
183	0xbd364b31	-0.044505302
184	0xbd8be777	-0.06831258
185	0x3e29d7c9	0.16586222
186	0xbae2c10b	-0.0017299963
187	0x3c85a503	0.016314035
188	0x3d039c94	0.032131746
189	0xbdd04352	-0.1016909
190	0x3e2e9bb6	0.17051587
191	0x3d965223	0.07339885
192	0x3e2b5364	0.1673103
193	0x3b10f0e4	0.0022116238
194	0xbd9ff3a3	-0.07810142
195	0x3dadf5b8	0.08494133
196	0xbd30fa35	-0.043207366
197	0x3d211fca	0.039336957
198	0xbdf28209	-0.118412085
199	0x3e6f5547	0.23372374
200	0xbd28881a	-0.04114542
201	0xbcf4fe0b	-0.029906293
202	0xbc366842	-0.011133255
203	0xbd91723b	-0.07101866
204	0x3df5840a	0.11988075
205	0xbe2f196c	-0.17099541
206	0xbd045da5	-0.03231587
207	0xbdf02215	-0.11725251
208	0x3dec616e	0.11542021
209	0xbe17c06f	-0.14819501
210	0x3e2b10e5	0.16705664
211	0xbe3ad7b7	-0.18246351
212	0xbe0658f8	-0.13119876
213	0x3d54a8e6	0.051918887
214	0xbe1226c1	-0.14272596
215	0x3e653a0f	0.22385429
216	0x3e578693	0.2104743
217	0xbdd7e46a	-0.105416134
218	0x3e09ad02	0.13444903
219	0xbd20e97c	-0.039285168
220	0x3da0025f	0.07812952
221	0xbda82d7a	-0.08211799
222	0x3cb8dc0f	0.02256587
223	0xbd1de0ed	-0.038544584
224	0x3d1513be	0.03639578
225	0x3df7ca12	0.12099089
226	0xbe0a68ad	-0.13516493
227	0x3ce9902b	0.028511127
228	0x3e154bb4	0.1457966
229	0x3e3504d1	0.17677619
230	0x3db17444	0.08664754
231	0x3bf902dd	0.0075992183
232	0x3e10571e	0.14095733
233	0x3dda1a7d	0.106495835
234	0xbdf4d533	-0.11954727
235	0x3bdfdfec	0.0068321135
236	0xbdf93832	-0.121689215
237	0x3d91721f	0.07101845
238	0x3c1d4aea	0.00960038
239	0xbdeb14df	-0.1147859
240	0x3d482165	0.048859973
241	0x3e14fc9b	0.14549486
242	0xbd991031	-0.074737914
243	0xbdf5c406	-0.12000279
244	0xbdaf17a1	-0.08549429
245	0x3cd4608e	0.025924947
246	0xbe47e4fa	-0.19520941
247	0xbcce4c6d	-0.025182927
248	0x3e27f231	0.16400982
249	0xbdc9d5ba	-0.09855218
250	0xbd847705	-0.06468014
251	0xbd01c89f	-0.031685468
252	0x3e35d66b	0.17757575
253	0xbd82b040	-0.06381273
254	0x3e21f3ee	0.15815708
255	0xbddbb15c	-0.10727188

l2.weight f4 [256, 512]
0	0x3cac21c5	0.021012196
1	0xbcacbc69	-0.021085935
2	0xbd0497bd	-0.03237127
3	0xbd67a362	-0.0565523
4	0x3c36468c	0.011125218
5	0xbcb37962	-0.021908466
6	0xbca5180b	-0.020153066
7	0xbbe53549	-0.0069948775
8	0xbadc391b	-0.0016801687
9	0xbd12974b	-0.035788815
10	0xbb8fa6c9	-0.004383896
11	0x3d9f1511	0.0776769
12	0xb9e9109c	-0.00044453598
13	0xbc5ac888	-0.013353474
14	0xba1fb41e	-0.0006092208
15	0x3d4a9afa	0.049464203
16	0x3ba505a0	0.005036071
17	0x3c7ce883	0.0154362945
18	0x3cdecdf2	0.027197812
19	0xbd3f9d50	-0.046780884
20	0x3d86a86f	0.06575095
21	0x3cce45be	0.02517974
22	0x3cfc4696	0.030795377
23	0x3c3e3812	0.011610048
24	0xbbcee03f	-0.0063133533
25	0x3cbca432	0.023027513
26	0xba23e60f	-0.0006252238
27	0x3daa7106	0.08322339
28	0xbd3cb187	-0.04606774
29	0x3d1b9cec	0.03799145
30	0xbbfb291d	-0.007664813
31	0x3be162af	0.006878219
32	0x3d2481ae	0.040162735
33	0x3d8a0ed2	0.06741108
34	0xbce201d1	-0.027588757
35	0x3cd2a54a	0.025713582
36	0xbd554f1a	-0.05207739
37	0x3cd1a05b	0.025589159
38	0x3d6378a3	0.05553497
39	0x3d3050e8	0.04304591
40	0x3b108d9f	0.002205707
41	0x3cde047a	0.027101744
42	0x3d349657	0.044088688
43	0xbba1d068	-0.004938174
44	0x3cb89728	0.022533014
45	0xbcf4665f	-0.02983397
46	0x3ceff1b7	0.029290063
47	0x3cd04a56	0.025426071
48	0xbb15b61b	-0.002284414
49	0x3cef04ab	0.02917703
50	0xbca7fade	-0.020505365
51	0x3d56a5fe	0.052404396
52	0x3c735012	0.014850633
53	0x3d902728	0.070387185
54	0xbd080fed	-0.033218313
55	0x3c12d2e5	0.008961414
56	0x3d965597	0.07340544
57	0x3d03836c	0.032107756
58	0x3d951fd5	0.07281462
59	0x3c3a1bc0	0.011359155
60	0xba9239bb	-0.0011156121
61	0x3bce1284	0.0062888283
62	0xbd794fe5	-0.06086721
63	0xbbb6adbb	-0.0055749095
64	0x3d36f095	0.04466303
65	0x3c90d00b	0.017677328
66	0x3b3b7de3	0.002860897
67	0x3d2ecd2f	0.042676147
68	0x3d36b628	0.04460731
69	0x3d31d8f3	0.04341979
70	0x3c2a457c	0.010392543
71	0x3da01213	0.078159474
72	0x3cbf9122	0.023384634
73	0xbd0c9b8c	-0.03432803
74	0xbcab6673	-0.020922875
75	0xbc826a23	-0.01591975
76	0x3d73d36f	0.05952781
77	0xbd08f9a4	-0.0334412
78	0x3c5b1838	0.013372473
79	0x3d16faf9	0.03686044
80	0xbca4015e	-0.020020183
81	0x3d840573	0.06446352
82	0x3d7fd270	0.06245655
83	0x3c926b87	0.017873539
84	0x3d2978bf	0.041374918
85	0xbd0798ae	-0.03310459
86	0xbd26fd33	-0.040768813
87	0xbcef1d2a	-0.029188711
88	0x3ce7e4b9	0.028307306
89	0x3cb91547	0.022593154
90	0x3c2e31fb	0.010632033
91	0x3d2bb7f8	0.041923493
92	0x3cf89416	0.03034405
93	0xbc917e67	-0.017760469
94	0x3d3c83cd	0.046024133
95	0xbc95589a	-0.018230725
96	0x39f6970c	0.00047033315
97	0x3d1a39ce	0.037652783
98	0x3c7287bd	0.01480287
99	0xbcbf1ae5	-0.023328254
100	0xbd03cee6	-0.032179736
101	0x3d85f79e	0.0654137
102	0xbb8e44d7	-0.0043417024
103	0x3cd9a557	0.026568098
104	0x3b471980	0.003038019
105	0x3d9d21ca	0.076724604
106	0xbb25598f	-0.0025230383
107	0x3d6ed4ec	0.058308527
108	0x3c3b3961	0.011427254
109	0xba59b69a	-0.0008305103
110	0x3cbb9ffa	0.022903431
111	0x3d61f4fc	0.055165276
112	0x3a2e18be	0.000664126
113	0xbcc8b580	-0.024500608
114	0x3c0ae57f	0.008477568
115	0x3d76bd4d	0.060239125
116	0x3d6a89b4	0.05726023
117	0x3caede4c	0.021346234
118	0xbc8b9a6c	-0.017041408
119	0x3ccffb59	0.025388407
120	0xbbab3365	-0.0052246326
121	0x3d42e968	0.047585875
122	0x3d7acbba	0.061229445
123	0x3d0fb147	0.035081174
124	0x3d1a1e4c	0.03762655
125	0x3d31d3a3	0.043414723
126	0x3c9bf0b8	0.019035682
127	0x3cc97aea	0.024594743
128	0x3cda63b3	0.026658868
129	0xbcb064cb	-0.021532437
130	0x3db3a288	0.08771235
131	0xbc63e1bd	-0.013908801
132	0xbc8452aa	-0.016152699
133	0x3d2af309	0.041735683
134	0x3db571d0	0.08859599
135	0xbc030d4a	-0.007998774
136	0x3d94ae40	0.07259798
137	0xbc8f94af	-0.017526953
138	0xbc1c5aed	-0.009543163
139	0x3c22c337	0.009934238
140	0xbd1e5c8d	-0.038662482
141	0x3c97ede8	0.01854606
142	0x3d8c1fb2	0.06841983
143	0xbc78a04b	-0.015174936
144	0x3cf260bc	0.029587142
145	0x3d47eb1f	0.048808213
146	0x3d52e71b	0.05148993
147	0x3d348f08	0.044081718
148	0x3d7c8229	0.061647568
149	0xbb983b88	-0.0046457686
150	0xb9ff9295	-0.00048746602
151	0xbcd197db	-0.025585106
152	0x3ca1cb2e	0.019750204
153	0x3d1cd95b	0.038293224
154	0x3d90ad54	0.0706431
155	0x3d682f71	0.05668587
156	0x3cc6cc22	0.02426726
157	0x3c385cc6	0.011252588
158	0x3c93b001	0.018028261
159	0xbcb8cc6a	-0.02255841
160	0x3cc8a26a	0.024491508
161	0x3cc74cfa	0.024328697
162	0xbc4b986a	-0.012426475
163	0x3d7e20f5	0.06204315
164	0x3d065c44	0.032802835
165	0xbb00457a	-0.0019572661
166	0x3cab0716	0.020877402
167	0x3cd6afa0	0.026206791
168	0x3c79b1c0	0.015240133
169	0x3c8c9c33	0.017164325
170	0xbc78763e	-0.01516491
171	0x3cd6edda	0.026236463
172	0xbbbd8e47	-0.005784783
173	0xbd10009c	-0.03515683
174	0x3bac152a	0.0052515464
175	0xbb604f64	-0.0034227008
176	0x3d73d25c	0.059526786
177	0xbd36661b	-0.04453097
178	0x3d4bfd4f	0.04980212
179	0x3c8d5df7	0.01725672
180	0x3d40a0d7	0.04702839
181	0x3c1dc8b8	0.009630375
182	0xbb28d6f5	-0.002576289
183	0x3c75e774	0.015008796
184	0x3d7a76e4	0.06114854
185	0xbd0872e9	-0.033312712
186	0x3cedfbd9	0.029050754
187	0x3c704665	0.014665221
188	0x3cb3ca86	0.021947157
189	0x3d73b6ba	0.059500434
190	0xbb18dd26	-0.0023325174
191	0x3d34f544	0.044179216
192	0x3d17c659	0.037054393
193	0xbbc28ae1	-0.005936966
194	0x3cc669d1	0.02422038
195	0x3d729bcd	0.059230614
196	0xbc8bfe97	-0.017089171
197	0x3d9a2fc6	0.07528643
198	0x3cf21149	0.029549258
199	0x3d620c9f	0.055187818
200	0x3d8ed8fc	0.0697498
201	0xbb20a00e	-0.0024509463
202	0xbcb66f42	-0.022269849
203	0x3cce1e0b	0.02516081
204	0xbbdc5fc0	-0.0067252815
205	0xbaa2d4ca	-0.0012423035
206	0x3ca1b7e9	0.019741016
207	0x3c8cccb2	0.01718745
208	0x3d0a7698	0.033804506
209	0xbba03f2b	-0.0048903427
210	0xbc9b1253	-0.018929636
211	0x3cb5d852	0.022197876
212	0x3c4e6845	0.012598102
213	0x3db63e28	0.08898574
214	0x3d0612d7	0.03273281
215	0x3d00de5d	0.031462062
216	0x3d949c6b	0.07256397
217	0xbbdb04a9	-0.006683905
218	0xbd0dc6fd	-0.0346136
219	0x3c7ffe98	0.015624665
220	0x3d3f5798	0.046714395
221	0x3da5699a	0.080767825
222	0x3d9589ef	0.07301699
223	0x3c479dee	0.012183649
224	0x3cb6144e	0.022226479
225	0x3d984622	0.07435252
226	0x3c551a7c	0.013006803
227	0xbbef5045	-0.00730327
228	0xbcaf0854	-0.021366276
229	0x3d16d921	0.036828164
230	0x3d57a271	0.05264515
231	0x3ca2a786	0.019855272
232	0xbbabf9b2	-0.005248272
233	0x3d4da902	0.050210007
234	0x3d38b08a	0.045090236
235	0x3c1c21de	0.009529559
236	0x3d7bbfd0	0.061462224
237	0xbbae8c7e	-0.0053268066
238	0x3cf46779	0.029834496
239	0x3c5000c1	0.012695492
240	0x3cc94a2f	0.024571506
241	0x3d44296a	0.047891058
242	0x3d3ee4e0	0.04660499
243	0x3c29dade	0.010367123
244	0xbcaf7521	-0.021418156
245	0xbc5631f2	-0.013073431
246	0xbd08aabd	-0.033365954
247	0x3cba5930	0.022747606
248	0x3d6b4354	0.057437256
249	0x3bb7d467	0.005610037
250	0x3d0d2510	0.034459174
251	0x3a08c692	0.00052175776
252	0x3d44e687	0.04807141
253	0x3d9d6b07	0.076864295
254	0x3d61556b	0.0550131
255	0xbcb6ad2f	-0.022299377

l2.bias f4 [256]
0	0x3b3eb23d	0.0029097938
1	0x3b663e4d	0.003513235
2	0x3c26d8a6	0.010183489
3	0x3d303c28	0.04302612
4	0xbcd35cad	-0.025801027
5	0x3ccce6c2	0.025012378
6	0xbc0c96f0	-0.008580908
7	0x3cc35b24	0.02384717
8	0x3c9b6649	0.018969672
9	0xbd181169	-0.03712598
10	0xbd4e5db7	-0.050382342
11	0xbba1b023	-0.004934327
12	0x3b09be51	0.0021017978
13	0x3de4542c	0.11148867
14	0x3ced872b	0.028995117
15	0x3c61b2fe	0.013775585
16	0xbd618b0f	-0.055064257
17	0x3cada221	0.021195473
18	0xbcbfc1af	-0.023407785
19	0xbd273ed5	-0.040831406
20	0xbd0bb4df	-0.03410804
21	0xbca19428	-0.019723967
22	0x3ce09440	0.027414441
23	0x3ca36000	0.019943237
24	0xbd0f8663	-0.03504027
25	0x3cf516e2	0.029918138
26	0xbd55a2ba	-0.05215714
27	0xbc7d1349	-0.0154464925
28	0x3c40cdaa	0.011767784
29	0xbd2eed78	-0.042706937
30	0x3dc88efb	0.09792896
31	0xbd356ebc	-0.044295058
32	0xbd2ddcbf	-0.042446848
33	0x3b9c6601	0.004772902
34	0xbd021ea3	-0.0317675
35	0x3cd60d7e	0.02612948
36	0x3c984cf1	0.018591376
37	0xbc888070	-0.016662806
38	0x3ce803ea	0.028322179
39	0xbcbd3f6e	-0.023101535
40	0x3dc9b3c5	0.098487414
41	0xbb3ccae7	-0.0028807463
42	0x3c068c28	0.008212127
43	0xbd47a23a	-0.048738696
44	0x3ca1bcf1	0.019743415
45	0xbcdb8d86	-0.026800882
46	0xbc909da3	-0.017653292
47	0xbcc7325c	-0.024316005
48	0x3d07b773	0.033133935
49	0x3c62d14b	0.013843845
50	0x3a5315d2	0.0008052263
51	0x3d2f7d95	0.042844374
52	0x3c4d1c9c	0.012519028
53	0x3d37c1ac	0.044862434
54	0x3bacc2b7	0.0052722353
55	0x3cd84773	0.026401257
56	0x3cabb57f	0.020960568
57	0xbc6239fa	-0.013807768
58	0xbcb936c5	-0.022609124
59	0x3c2785ad	0.010224742
60	0xbd1f6f3d	-0.038924444
61	0xbd061fa6	-0.032745026
62	0xbd34a23d	-0.044100035
63	0xbce95220	-0.028481543
64	0xbccdfc0b	-0.025144598
65	0xbc8733e3	-0.016504234
66	0x3d0288f9	0.03186891
67	0x3d283981	0.041070465
68	0xbbd2f392	-0.0064377273
69	0x3ca1b58e	0.019739892
70	0x3cf9e53c	0.030504815
71	0x3d2e8195	0.042604048
72	0xbc8e6a67	-0.017384721
73	0xbca6164b	-0.020274302
74	0xbcad5e17	-0.02116303
75	0xbcf0e2ea	-0.029405076
76	0xbcb9271b	-0.022601655
77	0x3c007232	0.007839726
78	0xbd185d59	-0.0371984
79	0x3d0c4cb8	0.034252852
80	0xbd173ebc	-0.036925063
81	0xbc678287	-0.014130241
82	0xbcdffbc8	-0.027341738
83	0xbcc8b90f	-0.024502305
84	0xbccff852	-0.025386963
85	0x3cc0286e	0.023456778
86	0x3bf54b73	0.007485801
87	0x3c1de995	0.00963821
88	0xbc49460b	-0.012284766
89	0x3c93ec44	0.018056996
90	0x3c6e7a04	0.014555458
91	0x3be91611	0.007113226
92	0xbbcc5228	-0.0062353797
93	0x3cde7382	0.027154688
94	0x3ce21049	0.027595656
95	0xbcb9252d	-0.022600735
96	0xbd17e5b8	-0.03708431
97	0xbc5e8d3e	-0.013583479
98	0x3c6a39e1	0.014296026
99	0xbc3125aa	-0.0108122025
100	0x3a31d391	0.000678354
101	0xbcf8323a	-0.030297387
102	0x3c231a74	0.009955037
103	0xbd2eff12	-0.042723723
104	0x3bd9daaa	0.0066483812
105	0x3db839c2	0.089953914
106	0x3cef6e70	0.029227465
107	0x3cd1a7f9	0.02559279
108	0x3c7ee48c	0.0155574195
109	0xbd0ce59b	-0.034398656
110	0x3d16ad08	0.03678611
111	0x3bbb2f6a	0.0057124393
112	0x3b63ddb1	0.003476959
113	0xbbaaf38d	-0.005217022
114	0xbc305564	-0.010762546
115	0x3c559842	0.013036789
116	0xbbabfc84	-0.005248608
117	0x3d1a7685	0.037710685
118	0x3c730a10	0.014833942
119	0xbcc6e7cd	-0.024280453
120	0x3d1ce6e7	0.038306143
121	0xbc2e7aa9	-0.010649362
122	0xbcf3a6c7	-0.029742612
123	0xbd248221	-0.040163163
124	0x3d03b441	0.032154325
125	0x3c3274a1	0.010892064
126	0x3d2ef838	0.04271719
127	0x3ca04b39	0.019567119
128	0x3cac98d8	0.021068975
129	0x3cff32ca	0.031152148
130	0x3c7a72bd	0.015286145
131	0x3d032ed4	0.03202708
132	0x3bbb987e	0.0057249656
133	0x3c74f8a5	0.01495186
134	0xbc34cd09	-0.011035212
135	0xbd414aa3	-0.04719032
136	0xbc495f2c	-0.012290757
137	0xbc418e63	-0.011813733
138	0x3d088068	0.033325583
139	0xbb7f147f	-0.0038922129
140	0x3c3e0445	0.011597698
141	0x3ce53651	0.027980002
142	0xbd27ee7e	-0.04099893
143	0xbd2b6f46	-0.041854165
144	0xbc9d8955	-0.019230524
145	0x3cc80bab	0.024419626
146	0x3d35050a	0.04419426
147	0xbd26b265	-0.040697474
148	0xbc722806	-0.01478005
149	0x3d043557	0.03227743
150	0x3c64aa50	0.013956621
151	0xbcca5fd9	-0.024703907
152	0xbabeea4e	-0.0014565678
153	0x3d463882	0.048393734
154	0xbc7fe757	-0.015619121
155	0x3ce490ee	0.02790114
156	0xbd216b3c	-0.039408907
157	0x3c7d8ff0	0.015476212
158	0x3d75c622	0.060003407
159	0xbce70f2a	-0.028205473
160	0xbd0b8e78	-0.034071416
161	0xbd10f27d	-0.035387505
162	0x3b88b143	0.004171522
163	0xbc8719b7	-0.016491754
164	0x3d58366f	0.052786287
165	0xbcf78384	-0.030214079
166	0x3ce6b569	0.028162675
167	0x3ba094bc	0.004900543
168	0x3c35a1cf	0.011085941
169	0xbd1f8b0e	-0.038950972
170	0xbc8ef597	-0.01745109
171	0x3bb11c12	0.0054049576
172	0xbb1f0757	-0.002426585
173	0x3cfcd2d0	0.030862242
174	0xbd0cf51f	-0.034413453
175	0xbc9da8db	-0.019245556
176	0x3bd7ea28	0.006589193
177	0xb8873b2f	-6.4483254e-05
178	0x3d255093	0.040360045
179	0xbc7a9c43	-0.015296045
180	0xbd048f16	-0.03236302
181	0xbd252c53	-0.040325474
182	0x3a6c2d18	0.0009009405
183	0xbce0be57	-0.027434511
184	0xbc92b05a	-0.017906357
185	0xbc8b739a	-0.017022897
186	0xbcc660a1	-0.024215998
187	0x3cb2b24b	0.021813532
188	0x3c6aa8c2	0.014322462
189	0xbcc0b9cd	-0.023526097
190	0xbd0870aa	-0.03331057
191	0x3c27fce1	0.010253162
192	0xbcd012de	-0.025399622
193	0x3d20df86	0.03927567
194	0x3d1b621c	0.03793536
195	0x3cc7681c	0.024341635
196	0xbce5ebb4	-0.028066494
197	0xbc33b952	-0.010969477
198	0x3b8b1db2	0.0042454833
199	0x3cd48852	0.025943909
200	0x3cc7d1fb	0.024392119
201	0x3d3b17fc	0.04567717
202	0xbd0e75d0	-0.034780324
203	0x3d0fcebe	0.035109274
204	0x3c36e58e	0.011163129
205	0xbbb6be1f	-0.0055768634
206	0xbd0c52c5	-0.034258623
207	0xbcc33f8e	-0.023834016
208	0x3cfa0a00	0.030522346
209	0x3cbd9758	0.023143455
210	0x3c5cc416	0.013474485
211	0xbd4473b7	-0.047961917
212	0x3c04a20c	0.008095276
213	0xba28043f	-0.0006409324
214	0x3d481376	0.048846684
215	0xbcfc697a	-0.030812014
216	0xbd079389	-0.033099685
217	0x3d04a95f	0.032388087
218	0x3c458a1d	0.012056855
219	0xbcd54017	-0.026031537
220	0xbb901849	-0.0043974263
221	0x3c8443c6	0.016145598
222	0xbbfd3f40	-0.0077284873
223	0x3cfba3e8	0.030717805
224	0xbcdcf8ef	-0.02697417
225	0x3c414f94	0.011798758
226	0x3ab2e31a	0.0013648004
227	0xbbab74eb	-0.0052324436
228	0x3c1562e8	0.009117819
229	0xbd050f3a	-0.032485224
230	0xbd0d400b	-0.034484904
231	0x3b0b18d3	0.0021224513
232	0xbab8ca70	-0.0014098417
233	0xbc68d245	-0.014210288
234	0x3bf40521	0.0074469005
235	0xbc8c4a8d	-0.017125392
236	0xbc82b4fa	-0.015955437
237	0xbd464d4c	-0.04841356
238	0xbd01f674	-0.031729177
239	0xbc995545	-0.018717417
240	0xbca51e94	-0.020156182
241	0x3ca794ff	0.020456789
242	0x3c64eec7	0.013972945
243	0x3d070739	0.032965872
244	0xbc2023c2	-0.00977415
245	0xbd117979	-0.035516236
246	0x3d162b55	0.03666242
247	0xbd0b959b	-0.03407822
248	0xbca262b4	-0.019822456
249	0x3d101800	0.03517914
250	0x3ba989ec	0.0051739123
251	0xbce8f77f	-0.028438328
252	0xbd1a988b	-0.037743133
253	0xbc9d2c29	-0.019186096
254	0xbc394e0e	-0.011310114
255	0x3d0288f1	0.03186888

l3.weight f4 [128, 256]
0	0xbd79ba0d	-0.060968447
1	0xbd4cf826	-0.05004134
2	0x3cd4f901	0.02599764
3	0xbd8729bb	-0.06599756
4	0x3b817dc9	0.0039517623
5	0xbc782c4e	-0.015147282
6	0xbd06c9f1	-0.03290743
7	0x3cb41743	0.021983748
8	0x3cd65637	0.026164157
9	0x3d369c1a	0.044582464
10	0xbce1f095	-0.027580539
11	0xbd798ae8	-0.060923487
12	0xbc91cfcb	-0.017799279
13	0xbd302623	-0.04300512
14	0x3d29ddb7	0.04147121
15	0xbb2fcc9e	-0.0026824842
16	0x3d53b411	0.051685397
17	0x3ce22d29	0.027609425
18	0x3cec7fe0	0.02886957
19	0xbd5b9cb9	-0.05361626
20	0x3cec6ee4	0.02886147
21	0x3d45a1a7	0.048249867
22	0xbc3e3cf5	-0.011611213
23	0xbd74c6ab	-0.059759777
24	0xbd2175a5	-0.039418835
25	0x3d25938c	0.040423915
26	0xbd00a651	-0.03140861
27	0xbd79308c	-0.060837314
28	0xbc8d8748	-0.017276421
29	0x3d410d6a	0.047131933
30	0x3c88d777	0.016704304
31	0xbd52f4b6	-0.051502906
32	0xbc6f4211	-0.014603154
33	0x3d474fd4	0.048660114
34	0x3bb6da2e	0.0055802083
35	0xbd44e202	-0.0480671
36	0x3d06830d	0.032839824
37	0xbd877683	-0.06614401
38	0x3c653357	0.013989291
39	0x3c831756	0.016002338
40	0x3cb7d743	0.022441512
41	0xbd2d02c8	-0.04223898
42	0xbc90208c	-0.017593645
43	0x3c9963e2	0.018724386
44	0x3d55da16	0.052209936
45	0x3d5afd25	0.053464074
46	0x3d4232f7	0.047411885
47	0x3cd07410	0.025445968
48	0xbd1d9811	-0.0384751
49	0x3d1a1520	0.037617803
50	0xbcff0ba6	-0.031133484
51	0x3bea65d9	0.0071532545
52	0x3d32aab5	0.04361983
53	0x3ca7e872	0.02049658
54	0x3bfdf814	0.0077505205
55	0x3d183b57	0.037165966
56	0x3c76c382	0.015061261
57	0x3d05136c	0.032489225
58	0xbca3ddd7	-0.020003242
59	0xbd541325	-0.05177607
60	0xbaefed62	-0.0018304999
61	0xbd90b5f9	-0.070659585
62	0x3c13c8e0	0.00902006
63	0xbd28811b	-0.04113875
64	0xbccd5de7	-0.02506919
65	0x3d4e4a26	0.050363682
66	0xbc893a5f	-0.016751466
67	0xbb57aa3b	-0.0032907862
68	0xbd8b92e6	-0.06815128
69	0xbce2eb79	-0.027700173
70	0xbd8f51d4	-0.06998029
71	0x3ccd4e28	0.025061682
72	0xbd03309c	-0.03202878
73	0xbd0f4b14	-0.03498371
74	0x3d096c20	0.03355038
75	0x3d51a71c	0.05118476
76	0xbd36f510	-0.044667304
77	0xbd38c6f0	-0.045111597
78	0xbc8bedea	-0.01708122
79	0x3c94d45a	0.018167663
80	0xbc164913	-0.009172696
81	0xbcf00570	-0.029299468
82	0xbd815d15	-0.06316582
83	0xbd5e144d	-0.05421858
84	0x3c435966	0.01192317
85	0xbd7bf5c0	-0.061513662
86	0xbd269b49	-0.040675435
87	0x3c322ce7	0.010874963
88	0xbd45094b	-0.048104566
89	0xbd5f687f	-0.054543015
90	0xbd46ecdb	-0.048565727
91	0x3d3574a2	0.044300683
92	0x3b4f1cb2	0.0031602797
93	0xbd91a3f7	-0.07111352
94	0xba44fd80	-0.0007514581
95	0xbd800f56	-0.06252925
96	0xbd36d62a	-0.044637837
97	0xbc1a6dc5	-0.009425585
98	0xbd727de5	-0.059202094
99	0xbb9235f9	-0.0044620004
100	0xbc4af34e	-0.01238711
101	0xbcdd3d2b	-0.027006706
102	0x3d49bce8	0.04925242
103	0x3cfa495a	0.030552555
104	0xbca49998	-0.02009277
105	0xbd3c35cc	-0.045949742
106	0xbcafb984	-0.021450765
107	0xbd71fbbb	-0.05907796
108	0x3d26f1ad	0.040757824
109	0xbd37f3ce	-0.044910245
110	0x3d308ef2	0.043105073
111	0xbb4390aa	-0.0029840865
112	0xb7a2b6be	-1.9397e-05
113	0xbd0d4e96	-0.034498774
114	0x3d4bd6d3	0.04976542
115	0xbd370d8f	-0.044690665
116	0x3d3a1a5b	0.04543529
117	0x3d2f65bf	0.042821642
118	0xbc235889	-0.009969839
119	0xbcba6ce3	-0.022757
120	0xbd1ba1e8	-0.037996203
121	0x3c86f060	0.016472042
122	0xbd834576	-0.06409733
123	0x3d3ec7be	0.046577208
124	0xbd4b39ba	-0.0496156
125	0x3cbe2ff3	0.023216223
126	0xbd90e3d3	-0.07074704
127	0x3c50329d	0.01270738
128	0xbd83d63a	-0.06437345
129	0xba2cd280	-0.0006592646
130	0xbd4fac09	-0.050701175
131	0xbd7b674d	-0.061377812
132	0xbba349d6	-0.004983167
133	0xbca10822	-0.019657198
134	0x3d34c971	0.044137422
135	0xbc85694c	-0.016285561
136	0x3d17b3f8	0.037036866
137	0xbcb80108	-0.02246143
138	0xbc604a3e	-0.013689576
139	0xbbb56e2f	-0.0055368165
140	0x3d37d8c6	0.044884466
141	0xbd02df3a	-0.031951167
142	0xbc958d5c	-0.018255882
143	0xbbc8147d	-0.006105958
144	0x3d5ec875	0.05439039
145	0x3ca07485	0.01958681
146	0x3b300988	0.002686115
147	0x3cfe6b0e	0.031056907
148	0x3d32bc7b	0.04363678
149	0x3cf79b78	0.0302255
150	0x3d07bf4a	0.03314141
151	0xbd35c4e4	-0.044377223
152	0xbd3d5851	-0.046226803
153	0x3d529d83	0.051419746
154	0xbc4154cf	-0.011800005
155	0xbc37ba68	-0.011213876
156	0xbc6258fb	-0.01381516
157	0x3d2ab073	0.04167218
158	0xbd6a8d0b	-0.057263415
159	0xbcaa837c	-0.02081465
160	0xba7b709f	-0.0009591672
161	0x3d2d623a	0.042330004
162	0x3d3dde96	0.046354853
163	0x3c82e45b	0.015978029
164	0x3d5751a6	0.0525681
165	0xbd3ed85e	-0.046593063
166	0x3d61277f	0.054969307
167	0x3c89c02a	0.016815264
168	0xbd882e26	-0.06649427
169	0xbcbc500a	-0.022987384
170	0x3cbc0ba4	0.02295477
171	0xbd897690	-0.06712067
172	0x3d378005	0.044799823
173	0x3bd1bd9f	0.0064007784
174	0xbc99b673	-0.018763756
175	0xbd5ef75a	-0.05443511
176	0x3d599118	0.053116888
177	0xbd577239	-0.052599166
178	0xbbfe7000	-0.0077648163
179	0x3d0d632f	0.034518417
180	0xbd933c14	-0.07189193
181	0xbd44314c	-0.047898576
182	0xbd347fd7	-0.04406723
183	0x3cd84fbb	0.026405206
184	0xbbcf253e	-0.0063215783
185	0x3d4928f0	0.049111307
186	0x3bc9caa2	0.006158189
187	0xbc354308	-0.011063345
188	0x3cca6f8d	0.024711395
189	0x3cafc0ff	0.021454332
190	0x3cbf5879	0.023357617
191	0x3c3402f7	0.010987035
192	0xbc398d78	-0.011325233
193	0x3cfa76c2	0.030574206
194	0xbd207c17	-0.03918084
195	0xbc2a3738	-0.010389142
196	0xbcf55e88	-0.029952303
197	0xbcdb8e93	-0.026801383
198	0xbcfdc132	-0.030975912
199	0x3c9d557b	0.0192058
200	0xbd815d68	-0.06316644
201	0x3cdd60c8	0.027023688
202	0xbd8667c3	-0.0656276
203	0xbd545fb8	-0.051849097
204	0xbd656ce3	-0.056012046
205	0x3d4d112f	0.050065216
206	0x3d55fb56	0.052241646
207	0xbd25c6f4	-0.04047294
208	0xbd1232fa	-0.035693146
209	0xb9627c25	-0.00021599287
210	0xbd75b909	-0.059990916
211	0x3d4a2338	0.049349993
212	0xbcbe6515	-0.023241559
213	0x3c9dc1ce	0.019257452
214	0x3d49a641	0.049230818
215	0x3d2a714e	0.041611962
216	0xbd379913	-0.044823717
217	0xbccd2763	-0.025043195
218	0x3cfe2732	0.03102455
219	0x3d066316	0.03280934
220	0xbd87077a	-0.06593223
221	0xbd8ac72a	-0.06776269
222	0xbb376fa6	-0.0027990132
223	0x3c7a30c8	0.015270419
224	0x3bce1b30	0.006289862
225	0xbc7bf13d	-0.01537734
226	0x3d44dff0	0.048065126
227	0x3cca6ec5	0.024711022
228	0x3d14d1d0	0.036332905
229	0xbd83f058	-0.06442326
230	0xbd6f9d19	-0.05849943
231	0xbcc9b00f	-0.024620084
232	0xbd2c0120	-0.04199326
233	0xbd2c2f78	-0.042037457
234	0xbbb82e65	-0.005620765
235	0x3ce9bbee	0.028531995
236	0x3d28c9ec	0.041208193
237	0xbc0634f8	-0.00819134
238	0xbd60ed06	-0.054913543
239	0xbd0958fc	-0.033532128
240	0xbd793e1e	-0.060850255
241	0xbd08b11a	-0.033372022
242	0xbd36fa0d	-0.04467206
243	0xbd19c4a4	-0.037541047
244	0xbc8cc853	-0.017185366
245	0x3c5541fc	0.01301622
246	0xbd3a99c1	-0.045556787
247	0xbca2b26f	-0.019860474
248	0xbd3ef72d	-0.046622444
249	0x3c9e1d18	0.019300982
250	0x3d3979af	0.045282062
251	0x3d4364da	0.0477036
252	0xbca9255f	-0.020647703
253	0x3d282328	0.041049153
254	0xbc224267	-0.009903527
255	0x3b3977f6	0.0028300262

l3.bias f4 [128]
0	0xbd4e5daa	-0.050382294
1	0x3c06b8bc	0.008222755
2	0x3e037c89	0.12840475
3	0x3caa3402	0.020776752
4	0x3cf898dd	0.030346328
5	0x3cae5b16	0.021283668
6	0xbcea711a	-0.028618384
7	0x3d21751b	0.03941832
8	0xbcc6ca09	-0.02426626
9	0xbd06ccde	-0.03291022
10	0xbc8ccaed	-0.017186606
11	0x3dc45e56	0.09588306
12	0xbd8a2d77	-0.06746953
13	0x3d54de5a	0.051969863
14	0x3d2cf9a3	0.04223026
15	0x3d2b460e	0.041814856
16	0xbd483c4c	-0.04888563
17	0x3d20e23e	0.03927826
18	0x3d70de5b	0.058805805
19	0x3c92e235	0.01793013
20	0x3b591a76	0.0033127344
21	0xbd5a69fe	-0.05332374
22	0x3d55f41e	0.05223476
23	0x3e11acb4	0.14226037
24	0xbd80e46e	-0.062935695
25	0xbc72ce9e	-0.014819769
26	0xbc737466	-0.0148592945
27	0x3d852f64	0.0650318
28	0x3d34dee4	0.044157878
29	0xbd54129a	-0.051775552
30	0xbccb925c	-0.024850063
31	0xbcf61852	-0.030040894
32	0xbd6d07da	-0.057868816
33	0xbd6e4996	-0.058175646
34	0xbc51f926	-0.012815749
35	0xbd58f5c7	-0.052968767
36	0xbc3da0c2	-0.011573972
37	0x3ac2dc98	0.0014866767
38	0xbc8268c3	-0.015919095
39	0xbd095b04	-0.033534065
40	0xbd344d86	-0.044019245
41	0xbbff1867	-0.0077848914
42	0xbc9bf33d	-0.019036883
43	0xbd9d22c4	-0.07672647
44	0x3d320883	0.04346515
45	0x3d0df4d6	0.034657322
46	0xbb8c9748	-0.004290495
47	0x3c2d0d55	0.010562261
48	0xbd85cf71	-0.06533707
49	0x3bd489e3	0.006486164
50	0x3c88684e	0.016651299
51	0x3cd3f3c9	0.025873082
52	0x3d7935c5	0.060842294
53	0xbd571809	-0.052513156
54	0xbc0a6d6b	-0.008448939
55	0xbcd15783	-0.025554424
56	0xbd69a659	-0.057043407
57	0x3d5c1223	0.053728234
58	0x3d87b327	0.066259675
59	0xbd3a762e	-0.04552286
60	0x3cd04b5f	0.025426565
61	0x3d479523	0.048726212
62	0x3c8cc3fc	0.017183296
63	0x3ca56a61	0.020192327
64	0xbc2293fa	-0.009922976
65	0x3ca44316	0.02005152
66	0xbd13a0c7	-0.036042
67	0xbc25e991	-0.010126487
68	0xbcfb820c	-0.03070166
69	0x3cb03881	0.021511318
70	0x3dc0c95e	0.09413408
71	0xbc2b581c	-0.010458019
72	0xbd07d032	-0.033157535
73	0xbd755e6a	-0.059904493
74	0xbd23911b	-0.039933305
75	0x3c8a5354	0.016885437
76	0x3d132543	0.035924207
77	0x3aa18561	0.0012323075
78	0xbd4f3ede	-0.050597064
79	0xbd53a15d	-0.05166756
80	0xbcbebc86	-0.023283254
81	0x3ce0466a	0.027377326
82	0x3d714b58	0.058909744
83	0x3d67437e	0.05646085
84	0x3d782895	0.060585577
85	0xbd049404	-0.03236772
86	0xbbb1dea6	-0.005428153
87	0x3d1ab91c	0.03777419
88	0x3c807d99	0.01568489
89	0x3d3c655d	0.045995105
90	0xbbd9988a	-0.0066404985
91	0x3b0a2928	0.002108166
92	0x3d2b398c	0.041802928
93	0x3d33ed15	0.04392727
94	0x3c9ff640	0.0195266
95	0x3cb8f4fb	0.022577753
96	0x3d4aa39e	0.049472444
97	0xbd82c850	-0.06385863
98	0xbcbd35ab	-0.02309688
99	0xbd365eec	-0.04452412
100	0x3c4f65fb	0.012658591
101	0x3c8f0b55	0.017461458
102	0x3d1b87b0	0.0379712
103	0x3d4e5d64	0.050382033
104	0xbc673e2d	-0.014113945
105	0x3bcf87a6	0.006333309
106	0x3d89c3a7	0.06726771
107	0x3c2dc533	0.010606098
108	0x3d5ab927	0.05339923
109	0xbcc99e1d	-0.024611527
110	0xbd6132bb	-0.05498002
111	0xbd0148a7	-0.031563427
112	0x3cacd444	0.02109731
113	0xbd261067	-0.040542986
114	0x3e021442	0.1270304
115	0xbb465aab	-0.0030266445
116	0x3cf36559	0.029711412
117	0x3d4877af	0.048942264
118	0xbd1fd5ef	-0.039022382
119	0x3ddd1443	0.1079488
120	0xbd95bd73	-0.07311525
121	0xbc9b54ce	-0.018961336
122	0x3d633c93	0.05547769
123	0xbd243de6	-0.040098093
124	0xbcc6babe	-0.024258967
125	0xbd5de751	-0.05417568
126	0xbd338a79	-0.04383323
127	0x3d0de2ae	0.034640007

l4.weight f4 [64, 128]
0	0xbd4e7271	-0.05040211
1	0x3d2c9b89	0.042140517
2	0xbc7f1868	-0.015569784
3	0xbd92a5e4	-0.071605474
4	0x3c91b135	0.017784694
5	0xbc7d7198	-0.015468977
6	0xbdb1b52c	-0.08677134
7	0xbd468aa1	-0.04847205
8	0xbd4557f7	-0.048179593
9	0x3d96b695	0.073590435
10	0x3c37fdf0	0.011229977
11	0x3d6ab4a3	0.057301175
12	0xbc1d83ca	-0.0096139405
13	0xbd084d64	-0.03327693
14	0xbda9e5dc	-0.08295795
15	0xba35af73	-0.0006930746
16	0xbce716d4	-0.028209127
17	0x3d8ad7d7	0.067794494
18	0x3ca2424f	0.019807009
19	0x3d533012	0.051559515
20	0x3d86fedc	0.06591579
21	0x3c4359d7	0.011923275
22	0x3cc960a1	0.024582209
23	0xbcf8a7be	-0.030353423
24	0xbd8bb7c2	-0.068221584
25	0x3cdcace8	0.026937917
26	0xbd1dde4a	-0.03854207
27	0x3d4f639c	0.050632104
28	0xbd16ce44	-0.036817804
29	0x3d573c86	0.052547954
30	0x3dfdf3ce	0.12400018
31	0x3df88cdc	0.12136242
32	0x3dafb061	0.085785635
33	0x3ca85980	0.02055049
34	0x3e167b69	0.14695515
35	0x3d238242	0.039919145
36	0x3de5f7d3	0.11228909
37	0xbd972197	-0.07379454
38	0xbd304c77	-0.043041673
39	0x3df39ad5	0.11894766
40	0xbd03dde1	-0.032194022
41	0x3ddd7ccd	0.108148195
42	0x3db4649a	0.08808251
43	0xbc19e1fe	-0.00939226
44	0x3cdebf6e	0.02719089
45	0xbd90be0f	-0.07067501
46	0xbd4eb274	-0.050463155
47	0xbd09f7d4	-0.033683613
48	0xbd88a21d	-0.06671546
49	0x3d5d3d11	0.054013316
50	0x3d889e34	0.066708
51	0x3de6a70b	0.1126233
52	0x3d6bc0e9	0.05755702
53	0x3e034492	0.12819126
54	0xbd35df6a	-0.044402517
55	0x3d840119	0.06445522
56	0x3ddc60a5	0.10760621
57	0x3d86d2c4	0.06583169
58	0x3da04323	0.07825305
59	0xbd9c6654	-0.07636705
60	0x3cc73b9f	0.024320422
61	0x3d058984	0.03260185
62	0xbd1dc48c	-0.03851752
63	0xbda1acce	-0.07894288
64	0x3cdea404	0.027177818
65	0xbb06abe2	-0.0020549227
66	0xbd13dbc2	-0.03609825
67	0xbd3f23de	-0.046665065
68	0x3dae13f6	0.08499901
69	0xbd83ab02	-0.064291015
70	0x3c230fa2	0.009952458
71	0x3caa105e	0.020759758
72	0x3da093b8	0.07840675
73	0xbcf264c0	-0.029589057
74	0x3d8324f5	0.06403533
75	0x3d9ccef1	0.076566584
76	0x3cbb8010	0.022888213
77	0x3d2d8fe2	0.042373545
78	0x3d812a0b	0.06306847
79	0x3d9c562c	0.076336235
80	0x3cffc65c	0.031222515
81	0xbcde3064	-0.027122684
82	0xbdfcfc8b	-0.12352856
83	0x3dea0fc4	0.11428788
84	0x3cef1957	0.029186888
85	0x3cf463d4	0.029832758
86	0xbc39ea02	-0.011347296
87	0x3ceee620	0.029162467
88	0x3d63f86a	0.055656828
89	0xbc4df976	-0.012571683
90	0x3c9968ec	0.018726788
91	0xbadf19dc	-0.0017021256
92	0xbd24ae95	-0.040205557
93	0xbcc51ff1	-0.024063082
94	0x3dceaa6f	0.100911014
95	0xbceaaf2d	-0.028647983
96	0x3de3a0f6	0.11114685
97	0xbd959c58	-0.07305211
98	0x3d5c44d9	0.053776596
99	0xbdb2b788	-0.08726412
100	0x3d3467ba	0.044044234
101	0x3df78a24	0.12086895
102	0xbb889366	-0.004167962
103	0x392798bb	0.00015983258
104	0x3d280877	0.041023698
105	0xbcc6de4a	-0.024275918
106	0x3d14b60e	0.036306433
107	0x3d708716	0.058722578
108	0x3dd50376	0.10401051
109	0xbc34e68d	-0.011041296
110	0x3dcba154	0.0994288
111	0x3da02f87	0.07821565
112	0xbc4efbaf	-0.012633248
113	0xbca4b790	-0.02010706
114	0x3d2368a0	0.0398947
115	0x3cefd83d	0.029277915
116	0xbd97dd89	-0.07415301
117	0x3d47f2ae	0.04881542
118	0xbcc7ba7a	-0.024380911
119	0xbdb9d13c	-0.090731114
120	0x3d72dd76	0.059293233
121	0x3dc6c6e8	0.09705907
122	0xbdb4f662	-0.08836056
123	0x3e07d60f	0.1326525
124	0xbc8c7551	-0.017145785
125	0xbd19280b	-0.037391704
126	0x3cca31e4	0.024681993
127	0xbd5c699b	-0.05381165
128	0x3d51211a	0.05105696
129	0xbd4e5dcb	-0.050382417
130	0x3d3c5296	0.045977198
131	0x3d4cb162	0.049973853
132	0x3db1eadd	0.08687375
133	0x3c3ef1b0	0.0116543025
134	0x3d2d8c16	0.042369924
135	0xbdaa60bb	-0.08319231
136	0x3cc519b8	0.024060115
137	0x3d9f0a6d	0.077656604
138	0xbd82b698	-0.06382483
139	0x3c1de1a8	0.00963632
140	0xbd11ffd4	-0.035644367
141	0x3d82f8d9	0.0639512
142	0x3d73d006	0.05952456
143	0xbd96b3c2	-0.07358505
144	0xbd6163ea	-0.055026926
145	0xbd11ad68	-0.035565764
146	0xbd1271eb	-0.035753172
147	0xbda9e98f	-0.08296501
148	0xbdac7807	-0.08421331
149	0xba296900	-0.00064624846
150	0xbd3a27ed	-0.045448232
151	0x3d0e123a	0.03468535
152	0xbd216c89	-0.039410148
153	0x3ce9ec08	0.028554931
154	0xbcf68926	-0.030094694
155	0x3d7a2b3e	0.061076395
156	0x3ccca1a8	0.024979427
157	0xbd819708	-0.06327635
158	0x3d500f16	0.050795637
159	0x3bfc5080	0.007700026
160	0xbcc80688	-0.024417177
161	0xbc194618	-0.009355091
162	0x3d8c870d	0.068616964
163	0xbbccae00	-0.0062463284
164	0xbd6537dd	-0.05596148
165	0xbcbdac60	-0.023153484
166	0xbcad50e4	-0.021156736
167	0x3d1c1df2	0.038114496
168	0xbd0e6569	-0.03476468
169	0xbd9f003a	-0.07763715
170	0xbda3575b	-0.07975646
171	0xbc686860	-0.014185041
172	0x3b5fa0a0	0.003412284
173	0xbd4c5335	-0.04988404
174	0x3cbddf34	0.02317772
175	0x3cf23900	0.029568195
176	0x3d83b847	0.064316325
177	0x3d905e97	0.070492916
178	0xbbf12510	-0.0073591545
179	0xbd07820d	-0.03308301
180	0xbced9c6a	-0.029005248
181	0x3daefe93	0.0854465
182	0xbd4cba03	-0.049982082
183	0xbd187c6d	-0.037228037
184	0x3d3d65e6	0.046239756
185	0xbd8f7090	-0.070038915
186	0xbcd539a8	-0.02602847
187	0xbd041f1e	-0.03225624
188	0xbda9e9ab	-0.08296522
189	0x3d383396	0.04497107
190	0xbd21ad72	-0.03947205
191	0x3da76a49	0.08174569
192	0xbca9abc0	-0.02071178
193	0xbc3c8ee8	-0.011508681
194	0x3daa8027	0.08325224
195	0x3c481590	0.012212172
196	0xbbef9220	-0.0073111206
197	0x3d492a42	0.049112566
198	0xbd721d2e	-0.05910986
199	0x3d3525ea	0.04422561
200	0x3d9a810d	0.07544146
201	0x3ca794fc	0.020456783
202	0xbd006bcb	-0.0313528
203	0x3c95e708	0.01829864
204	0xbbf5dfc0	-0.0075034797
205	0xbd0c49b9	-0.034249995
206	0x3db36833	0.08760109
207	0x3d41d44e	0.04732161
208	0x3bfeec50	0.0077796355
209	0x3d7078ee	0.058709078
210	0x3c31bbd0	0.010848001
211	0xbae68740	-0.0017587915
212	0xbadb02c0	-0.0016709194
213	0x3d8ef275	0.06979839
214	0x3d263e4a	0.040586747
215	0xbbf89a40	-0.0075867474
216	0xbd524dfc	-0.051343903
217	0x3cc4a854	0.024006046
218	0x3d7744da	0.060368396
219	0x3bbab2e0	0.005697593
220	0xbd9ad404	-0.0755997
221	0x3c2a7e40	0.010406077
222	0xbd89d946	-0.06730895
223	0xbb575e00	-0.0032862425
224	0x3d466eaa	0.04844538
225	0x3d14256e	0.03616851
226	0xbd18593c	-0.037194476
227	0x3da73c09	0.08165748
228	0x3d964c1d	0.07338736
229	0x3d9fdd87	0.07805925
230	0x3d84a9b3	0.0647768
231	0xbce7234a	-0.02821507
232	0xbd343b2b	-0.04400174
233	0x3d106d20	0.03526032
234	0xbdb10f5f	-0.0864551
235	0xbdab8c46	-0.083763644
236	0xbd95a9a6	-0.073077485
237	0xba94dbc0	-0.0011356995
238	0x3db2d87d	0.08732698
239	0x3cc087e4	0.023502298
240	0xbd94421b	-0.07239171
241	0x3c73b5d0	0.01487489
242	0x3d843acb	0.06456526
243	0xbd96a3b1	-0.073554404
244	0xbbf26860	-0.0073976964
245	0xbda8575e	-0.08219789
246	0xbd3ba270	-0.04580921
247	0xbc7056d0	-0.014669135
248	0xbc8de08c	-0.017318986
249	0xbd03070c	-0.031989142
250	0xbd496b90	-0.049174845
251	0x3cd92730	0.026507944
252	0x3d8da66b	0.06916507
253	0x3d315b6a	0.04330007
254	0x3d75e702	0.06003476
255	0xbd0a5e97	-0.033781614

l4.bias f4 [64]
0	0xbdb2dfab	-0.087340675
1	0xbd204634	-0.03912945
2	0x3da2c2bb	0.07947298
3	0x3d9c5c35	0.076347746
4	0xbc837bd8	-0.016050264
5	0xbd9298b0	-0.07158029
6	0xbda70a40	-0.08156252
7	0x3d0669d1	0.03281576
8	0x3c41732b	0.011807243
9	0x3db41c96	0.08794515
10	0xbd3d89c3	-0.046273958
11	0xbd8dcdc9	-0.06924016
12	0x3abb6e82	0.0014299902
13	0x3db8dfa2	0.090270296
14	0xbd1c3570	-0.0381369
15	0x3c0e9268	0.008701898
16	0x3da2cea7	0.07949572
17	0xbd147f37	-0.036254134
18	0xbda751a7	-0.08169871
19	0x3d90e070	0.07074058
20	0x3db28062	0.08715893
21	0xbd47701a	-0.048690893
22	0x3da052db	0.078283034
23	0xbd71cd33	-0.059033584
24	0xbdb46d11	-0.08809865
25	0x3da0b700	0.078474045
26	0x3db3202a	0.08746369
27	0x3d287c1d	0.04113399
28	0x3da763e3	0.08173349
29	0xbd3dfe5d	-0.046385158
30	0xbd1caea2	-0.03825248
31	0x3d40d5e8	0.047078997
32	0x3e026b3c	0.12736219
33	0x3c53e651	0.01293333
34	0xbda15e88	-0.078793585
35	0xbd022f40	-0.031783342
36	0x3b673ab0	0.0035282783
37	0xbd553cd4	-0.052059963
38	0x3db96d90	0.090541005
39	0x3d0610fa	0.032731034
40	0xbd62052e	-0.05518072
41	0xbd6d0a6f	-0.05787128
42	0x3d7ff05c	0.062485084
43	0xbd0a4409	-0.03375629
44	0xbd8655df	-0.06559347
45	0x3db1bd47	0.0867868
46	0x3d2e3157	0.042527523
47	0x3d271bd6	0.04079803
48	0xbcf69656	-0.030100983
49	0x3d8226d6	0.063550636
50	0x3d8320ed	0.064027645
51	0xbc4b3420	-0.012402564
52	0x3df95ff5	0.121765055
53	0xbcc72389	-0.024308937
54	0x3dd70662	0.10499264
55	0xbc615577	-0.013753287
56	0x3cace28b	0.021104118
57	0xbd92c921	-0.071672685
58	0x3da8f2f6	0.08249466
59	0xbbecf58c	-0.00723142
60	0x3cff21ae	0.03114399
61	0xbd8b906d	-0.068146564
62	0xbd9f96f6	-0.077924654
63	0xbb84b9c4	-0.0040504653
