checkpoints/checkpoint.pth (torch, 754127 bytes, 12 tensors)

l1.weight f4 [512, 26]
0.14677328 0.17496522 -0.035139225 0.19664459 -0.03125617 0.03873387 -0.08599045 0.108730584
0.18579932 -0.15446581 0.18523312 -0.007489209 0.1780553 0.048328105 0.096924454 -0.002652806
0.14330985 0.060430344 -0.09607502 0.062770255 -0.118686564 -0.034019437 -0.07764822 0.119824395
-0.14372742 -0.08660858 -0.061278325 -0.09861457 0.019098263 -0.1973908 0.17823577 -0.16143803
0.15925658 0.0066056093 -0.052930698 0.119649775 -0.011100255 0.17370753 -0.017488737 -0.06700584
0.0323742 -0.055931102 0.08638773 0.14807218 0.1325359 -0.071398064 0.14460433 0.014908293
0.076188646 -0.13273332 -0.22041906 -0.09891572 -0.13798699 0.18852061 0.09013095 0.118555315
0.09617609 0.011045751 0.19019304 -0.10471726 0.0006578714 -0.17870443 0.065396205 -0.090187185
0.027753288 -0.066972114 0.15326633 -0.090709575 -0.12182012 -0.091207474 0.14721763 0.09711477
0.15310052 -0.15856476 -0.20678586 -0.15015768 -0.14428931 0.073470496 0.079337485 0.18687388
-0.11577125 -0.14952339 0.0890905 -0.07916799 0.12667614 -0.04429854 0.11085575 -0.14137496
-0.12888883 0.07953789 -0.015875539 -0.05308652 0.085988805 0.14717455 -0.100778766 -0.1468071
0.21772657 -0.046858676 -0.026616773 -0.2162393 -0.108958356 0.024300888 -0.030006398 -0.19665192
0.013879284 -0.13039617 -0.17590828 -0.12183573 -0.18413617 -0.11485657 0.19971013 0.040975884
0.034772113 -0.1673357 -0.16151503 -0.039826293 0.00090141385 -0.16915151 -0.08123568 -0.15051377
-0.012315993 -0.11673459 0.017702408 -0.15246636 -0.101952866 -0.11728378 -0.05819012 -0.12837341
0.15788232 -0.043448716 0.15614106 0.063837215 -0.1660727 0.13196942 -0.054205958 -0.09123132
-0.16101094 -0.18859394 0.04173045 -0.02571016 0.07980756 -0.19025826 0.16920228 -0.15056938
-0.054851606 0.046758294 0.08933585 0.15636517 0.14711608 -0.17569126 0.022580381 -0.068766475
-0.025726506 -0.16452622 0.17930503 -0.12236225 0.120342195 0.05774195 0.06181436 -0.10596218
0.17746443 0.05677937 0.01674957 -0.16870162 0.08146301 -0.013728254 -0.10908454 0.19920444
0.02551077 -0.09880499 -0.07513611 -0.04525623 0.1001622 -0.056066267 -0.09044827 -0.077308126
-0.13952127 0.062465686 0.15502346 -0.16521885 0.028985815 0.0930613 0.04211981 -0.08730037
0.11392288 0.121488355 0.08895097 -0.02290195 -0.055345587 -0.0073370826 -5.769028e-05 -0.08301145
0.1280647 0.14897162 0.00544071 -0.022355264 0.02199293 -0.0073589794 0.05521692 0.089049175
-0.17041697 -0.04448315 0.17328566 0.083243296 -0.01927011 -0.09512273 -0.12717327 -0.16274334
-0.04311792 0.04869729 0.16319403 0.13910922 -0.13106097 -0.113390334 -0.029755801 0.2043608
0.059745688 -0.04959536 0.106580324 -0.068053134 -0.094868414 0.14566281 -0.091272645 0.014138103
-0.18299495 0.17365006 0.11909862 0.09306735 -0.12963904 -0.21102728 -0.20046556 0.17008755
0.093439884 0.17928614 0.10319627 0.061765466 -0.008822504 -0.15906641 -0.176766 -0.17703573
0.079958335 -0.09804499 -0.042904187 -0.10953472 -0.051410913 -0.1086134 -0.1734504 0.05637861
-0.04818059 0.10142154 -0.053381745 -0.1719101 -4.4922945e-05 -0.07546278 -0.022200609 -0.20386188
00000000: bc4b 163e 152a 333e 26ee 0fbd 335d 493e
00000010: 7806 00bd 68a7 1e3d c31b b0bd 24ae de3d
00000020: 2d42 3e3e 492c 1ebe c0ad 3d3e 0a68 f5bb
00000030: 2154 363e b1f3 453d 5480 c63d b3da 2dbb
00000040: d1bf 123e cf85 773d fbc2 c4bd b18d 803d
00000050: f111 f3bd f757 0bbd 0806 9fbd 7e66 f53d
00000060: 482d 13be d75f b1bd fbfe 7abd 70f6 c9bd
00000070: f673 9c3c d020 4abe 7083 363e 0350 25be
00000080: 2814 233e de73 d83b dccd 58bd f10a f53d
00000090: d8dd 35bc 63e0 313e 8a44 8fbc 5c3a 89bd
000000a0: cf9a 043d 0318 65bd 0dec b03d 3ca0 173e
000000b0: 7eb7 073e 2639 92bd 2813 143e ea41 743c
000000c0: cb08 9c3d 3eeb 07be 89b5 61be 5394 cabd
000000d0: 764c 0dbe 8c0b 413e 9396 b83d 21cd f23d
000000e0: f8f7 c43d 3df9 343c f7c1 423e 0176 d6bd
000000f0: 0175 2c3a 4bfe 36be 72ee 853d 0fb4 b8bd
00000100: dd5a e33c ad28 89bd d9f1 1c3e f1c5 b9bd
00000110: d47c f9bd fcca babd 38c0 163e 1ce4 c63d
00000120: 62c6 1c3e cd5e 22be acbf 53be efc2 19be
00000130: 94c0 13be b377 963d b17b a23d de5b 3f3e
00000140: 7a19 edbd a91c 19be 1475 b63d d422 a2bd
00000150: 64b7 013e 6372 35bd 5708 e33d 99c4 10be
00000160: 6ffb 03be c3e4 a23d 6b0d 82bc 4071 59bd
00000170: e61a b03d edb4 163e 1965 cebd 9a54 16be
00000180: b7f3 5e3e e2ee 3fbd 6b0b dabc d66d 5dbe
00000190: 8f25 dfbd a812 c73c facf f5bc 1f5f 49be
000001a0: f065 633c 9386 05be 4d21 34be 0385 f9bd
000001b0: 318e 3cbe ec39 ebbd d080 4c3e 54d6 273d
000001c0: 346d 0e3d 0d5a 2bbe 3264 25be e520 23bd
000001d0: dc4c 6c3a 0e36 2dbe e45e a6bd 4820 1abe
000001e0: 05c9 49bc 8b12 efbd a404 913c 2420 1cbe
000001f0: aacc d0bd 7a32 f0bd c358 6ebd 5274 03be
00000200: e7ab 213e 48f7 31bd 71e3 1f3e 16bd 823d
00000210: f60e 2abe fe22 073e 1107 5ebd 7cd7 babd
00000220: 0de0 24be c51e 41be 8ced 2a3d 1d9e d2bc
00000230: 2572 a33d 10d3 42be 5d43 2d3e dc2e 1abe
00000240: 14ac 60bd a085 3f3d b7f5 b63d 311e 203e
00000250: 99a5 163e 69e8 33be 7efa b83c 70d5 8cbd
00000260: 65c0 d2bc 9079 28be bd9b 373e 0f99 fabd
00000270: f875 f63d d382 6c3d 0e31 7d3d b302 d9bd
00000280: 3cb9 353e 7c91 683d 6536 893c 1ec0 2cbe
00000290: 14d6 a63d 78ec 60bc b767 dfbd 40fc 4b3e
000002a0: f6fb d03c 455a cabd f6e0 99bd 995e 39bd
000002b0: d721 cd3d bea5 65bd f13c b9bd b953 9ebd
000002c0: aade 0ebe 05dc 7f3d 78be 1e3e 212f 29be
000002d0: a973 ed3c ec96 be3d d285 2c3d 89ca b2bd
000002e0: 6650 e93d e3ce f83d ed2b b63d df9c bbbc
000002f0: 0eb2 62bd e96b f0bb 77f8 71b8 e801 aabd
00000300: 6523 033e 048c 183e fc47 b23b 6322 b7bc
00000310: 842a b43c 9823 f1bb 232b 623d 6a5f b63d
00000320: c981 2ebe f733 36bd cc71 313e 767b aa3d
00000330: 5adc 9dbc b5cf c2bd b639 02be 31a6 26be
00000340: 6b9c 30bd cf76 473d 561c 273e a672 0e3e
00000350: d934 06be 3139 e8bd 70c2 f3bc f543 513e
00000360: e5b7 743d 8124 4bbd c946 da3d 715f 8bbd
00000370: 5f4a c2bd a228 153e 27ed babd 81a3 673c
00000380: 0763 3bbe 52d1 313e fae9 f33d 189a be3d
00000390: 19c0 04be 8917 58be d846 4dbe 6e2b 2e3e
000003a0: 695d bf3d c996 373e 9158 d33d c9fd 7c3d
000003b0: 448c 10bc 4ee2 22be 2502 35be db48 35be
000003c0: 32c1 a33d d0cb c8bd 4dbc 2fbd bd53 e0bd
000003d0: 4094 52bd b470 debd fb9c 31be 42ed 663d
000003e0: 0359 45bd 19b6 cf3d d1a6 5abd 3409 30be
000003f0: a56b 3cb8 3b8c 9abd 0dde b5bc 2bc1 50be

l1.bias f4 [512]
-0.0619119 -0.049244147 -0.15345626 0.12851706 0.03480973 0.07564842 0.12981819 -0.07819304
0.005678546 0.16484784 -0.17381471 0.18801521 0.12738094 -0.057132535 -0.14274529 0.11260091
0.09373725 -0.04282289 0.0960695 0.058984596 0.20266688 0.117059335 0.008619287 -0.17300835
0.17009555 0.18984221 -0.051999163 -0.007876459 -0.017923303 -0.021964105 0.12086062 0.056867298
-0.15864414 0.037604272 -0.10430832 0.06062175 0.09057092 -0.079287864 0.15747088 0.026437106
-0.09529776 0.20978382 0.14392495 0.16844648 -0.13827012 -0.13752195 -0.1566183 0.1025049
0.14148144 -0.10876545 0.08639941 0.042915896 -0.07244652 -0.007655123 -0.10967765 -0.056662187
0.0895913 0.022496646 -0.15498893 0.06049394 -0.041501723 -0.110468134 -0.1917101 0.02621112
-0.13324091 -0.11025844 0.05127685 0.01882339 -0.08460596 0.0477971 0.12529594 -0.07652917
-0.047150727 0.051196475 0.03832956 0.08099065 0.13139074 0.006777084 0.10009929 -0.09916008
-0.028592894 0.14206426 -0.21591371 -0.12023381 -0.16558085 0.17834747 -0.031724308 0.16677162
-0.08355388 -0.025469378 0.14762306 -0.12879823 -0.18818077 -0.14145991 0.0068436707 -0.16783684
0.03900126 0.17260054 -0.0259145 -0.018029556 -0.17753452 -0.039765336 0.03113187 0.047994077
-0.0578807 -0.1201463 -0.11430198 0.16721615 -0.09122853 0.052793927 -0.046479885 -0.07530298
-0.02874483 0.16321577 0.16582403 -0.056479625 -0.035911858 -0.10004279 -0.06644177 -0.021923237
0.13884968 0.039362684 -0.17016998 -0.050439984 -0.14930132 0.18871504 0.012887218 -0.015916262
0.07298913 -0.15796721 -0.07294921 0.038231105 0.1451012 0.18042763 -0.0013561812 -0.19557406
0.054748785 -0.1277969 0.18711168 -0.021231042 -0.03843024 -0.02956368 0.2011477 0.12742487
-0.12650216 0.01833748 0.052829694 -0.029546674 0.07671549 -0.15705514 -0.104741566 0.14143914
0.17546709 0.0507042 -0.09469816 0.063943416 -0.121685505 -0.15978071 -0.11478097 -0.018999452
0.048558548 0.03283899 0.21634978 -0.025724549 0.1967725 -0.11688004 -0.09091317 0.041515235
0.15106452 0.07864492 0.21095416 -0.10887186 0.19506241 0.065096624 0.045462485 0.0099587925
-0.13495177 0.1307539 0.04616098 0.1451833 0.16518912 -0.18301503 0.17946708 -0.01575066
-0.10422017 0.15955254 -0.036575586 0.05872602 0.053740628 -0.097464494 0.11797346 0.11127301
0.14817314 -0.04095911 -0.14054129 0.054427102 -0.026782647 0.014476525 -0.16479152 0.17230901
-0.105436765 -0.0073100342 0.0461416 -0.05810675 0.109860286 -0.12844013 0.0027929163 -0.11578279
0.14910573 -0.11002372 0.16980101 -0.16300829 -0.19088022 -0.0053649554 -0.1911123 0.17047144
0.17975399 -0.09705535 0.15743315 -0.0770815 0.034126464 -0.12730765 -0.010287976 -0.0708299
0.032247238 0.08601997 -0.15276925 0.0065295696 0.17331436 0.15656084 0.10137116 0.019473037
0.14643897 0.12257959 -0.11930417 -0.018830592 -0.18770264 0.04009696 0.020261839 -0.12685195
0.039817568 0.16882712 -0.17155069 -0.18657167 -0.075329475 0.030521497 -0.18100229 -0.013753844
0.15624204 -0.17295569 -0.041911084 -0.028100656 0.14009699 -0.062481664 0.1777999 -0.08868455
00000000: 5597 7dbd 3bb4 49bd a323 1dbe fa99 033e
00000010: a694 0e3d 8fed 9a3d 0fef 043e ac23 a0bd
00000020: 1913 ba3b dfcd 283e 7cfc 31be 0f87 403e
00000030: 2670 023e ce03 6abd d22b 12be 4e9b e63d
00000040: 51f9 bf3d 0e67 2fbd 16c0 c43d d599 713d
00000050: e887 4f3e cebc ef3d e937 0d3c 1a29 31be
00000060: 872d 2e3e ff65 423e 13fd 54bd 430c 01bc
00000070: e4d3 92bc 11ee b3bc c685 f73d afed 683d
00000080: 9c73 22be f006 1a3d 9a9f d5bd 834e 783d
00000090: 3f7d b93d ad61 a2bd 0c40 213e a192 d83c
000000a0: 792b c3bd 92d1 563e 1061 133e 3c7d 2c3e
000000b0: af96 0dbe 8ed2 0cbe 8c60 20be 17ee d13d
000000c0: 83e0 103e 6cc0 debd 2df2 b03d 94c8 2f3d
000000d0: d75e 94bd d3d7 fabb ad9e e0bd 9c16 68bd
000000e0: a57b b73d e34a b83c 6bb5 1ebe 7ec8 773d
000000f0: b6fd 29bd 1e3d e2bd a74f 44be b4b8 d63c
00000100: 4e70 08be 2dcf e1bd ad07 523d 8333 9a3c
00000110: e445 adbd e4c6 433d 944d 003e 53bb 9cbd
00000120: 1f21 41bd 65b3 513d 75ff 1c3d 6dde a53d
00000130: 4b8b 063e 4d12 de3b db00 cd3d 7114 cbbd
00000140: a53b eabc 4b79 113e 7c18 5dbe 253d f6bd
00000150: 078e 29be b8a0 363e 59f1 01bd 2ec6 2a3e
00000160: 4c1e abbd 28a5 d0bc 802a 173e afe3 03be
00000170: 76b2 40be deda 10be df40 e03b 6cdd 2bbe
00000180: c9bf 1f3d 32be 303e a54a d4bc b8b2 93bc
00000190: 9ccb 35be fae0 22bd 4308 ff3c 7095 443d
000001a0: 5014 6dbd 430f f6bd 2817 eabd b63a 2b3e
000001b0: 06d6 babd 723e 583d b161 3ebd 7338 9abd
000001c0: 477a ebbc 0922 273e c6cd 293e 2e57 67bd
000001d0: 5018 13bd 3ce3 ccbd 9f12 88bd 5c98 b3bc
000001e0: 9c2e 0e3e c43a 213d 0a41 2ebe 289a 4ebd
000001f0: 72e2 18be 843e 413e e924 533c d262 82bc
00000200: 537b 953d 28c2 21be 6566 95bd 3898 1c3d
00000210: 6995 143e 05c2 383e e4c1 b1ba 9144 48be
00000220: 4340 603d 31dd 02be 349a 3f3e b9ec adbc
00000230: 0769 1dbd 882f f2bc aaf9 4d3e aa7b 023e
00000240: c889 01be 7c38 963c f363 583d de0b f2bc
00000250: 031d 9d3d 10d3 20be bf82 d6bd 6cd5 103e
00000260: a5ad 333e 35af 4f3d 1cf1 c1bd c4f4 823d
00000270: 4036 f9bd 8e9d 23be 4912 ebbd bda4 9bbc
00000280: 54e5 463d 2d82 063d cc8a 5d3e 4abc d2bc
00000290: bb7e 493e cd5e efbd af30 babd e10b 2a3d
000002a0: a8b0 1a3e 9610 a13d 5e04 583e 36f8 debd
000002b0: 71be 473e 6151 853d df36 3a3d 342a 233c
000002c0: cc30 0abe 5ae4 053e 4c13 3d3d eeaa 143e
000002d0: 5627 293e 4b68 3bbe 38c6 373e 8707 81bc
000002e0: 6271 d5bd be61 233e 48d0 15bd b28a 703d
000002f0: 221f 5c3d 779b c7bd 129c f13d 1be3 e33d
00000300: b3ba 173e bdc4 27bd 0eea 0fbe f4ee 5e3d
00000310: 4867 dbbc f22e 6d3c 1cbf 28be c671 303e
00000320: 3bef d7bd 0389 efbb f9fe 3c3d 5801 6ebd
00000330: 6efe e03d cf85 03be 5c09 373b 871f edbd
00000340: 2caf 183e 1e54 e1bd 51e0 2d3e a5eb 26be
00000350: 1b76 43be 82cc afbb f1b2 43be 1190 2e3e
00000360: 6e11 383e f5c4 c6bd 2836 213e e8dc 9dbd
00000370: 31c8 0b3d f05c 02be e68e 28bc 440f 91bd
00000380: ae15 043d 3d2b b03d 8b6f 1cbe 00f6 d53b
00000390: 5279 313e 7c51 203e af9b cf3d eb85 9f3c
000003a0: 19f4 153e 020b fb3d bf55 f4bd 9d42 9abc
000003b0: 1f35 40be b63c 243d 28fc a53c 7ae5 01be
000003c0: bf17 233d 04e1 2c3e fcaa 2fbe a50c 3fbe
000003d0: 5746 9abd 3808 fa3c aa58 39be ce57 61bc
000003e0: eafd 1f3e 4c1b 31be f5aa 2bbd 5933 e6bc
000003f0: 9675 0f3e c6ec 7fbd 2d11 363e 3fa0 b5bd

l2.weight f4 [256, 512]
-0.007567388 -0.0038863835 -0.00055238337 -0.032381568 0.04073254 -0.012737216 -0.00030677134 -0.009935549
0.00174881 -0.009342512 -0.0065566143 0.06815888 0.022105822 -6.193647e-05 0.032592658 0.0414314
-0.0019703726 0.033526216 0.018277623 -0.01713811 0.055536587 0.0393471 0.05313055 0.039204217
0.018771712 0.035018746 0.0007596976 0.07308656 -0.028900364 0.045005746 -0.02292454 -0.01878055
0.043786462 0.06636745 -0.006008959 0.044038728 -0.016080854 0.015530006 0.08381141 0.05539258
-0.011353232 0.051644504 0.054563023 0.02465601 0.04300157 -0.025097253 0.03316268 0.028288526
0.007561356 0.048935566 -0.024381792 0.06752886 0.03320698 0.0635608 0.0036554926 -0.005289173
0.05676867 0.044086926 0.06417359 0.03694182 0.0046772393 0.009284706 -0.03439466 -0.0019179952
0.062394366 0.024508584 0.019194668 0.048675753 0.072517544 0.022288676 0.029731113 0.080820076
0.043841854 -0.02072195 -0.012493394 -0.004495983 0.045541488 -0.022546846 -0.024118265 0.024879588
-0.0022863962 0.0410327 0.038089577 0.028136803 0.051416524 -0.011198442 0.002011757 -0.010868972
0.016031643 0.04887758 0.015768278 0.058015782 0.038421936 -0.022875663 0.043976102 0.00473506
-0.01556552 0.040206183 0.02533142 -0.033073418 0.002403408 0.067751825 0.013329878 0.06431333
0.0010376915 0.07662792 0.003493744 0.043290723 0.005303274 0.009944888 0.03559442 0.043246537
-0.012210072 -0.007978173 0.017480865 0.035430185 0.049959447 0.00045702665 -0.0053108027 0.023164777
0.012534746 0.03277198 0.04350469 0.023229929 0.032868378 0.048855316 0.046502095 0.029158518
0.026009705 -0.03868918 0.070889965 0.011856121 0.02006652 0.07098421 0.06809016 -0.04273157
0.049576316 -0.005918314 0.013109607 0.020665234 -0.017826786 0.011343848 0.045223564 -0.0019717717
0.030725293 0.061046943 0.026443338 0.026668226 0.059987467 0.0017027591 0.017360121 -0.019046137
0.011382637 0.01823508 0.04927697 0.038017515 0.017418228 0.018213138 0.04145351 0.008722361
0.011980028 0.023091553 0.0036249948 0.0474159 0.032116428 0.016084695 0.019666899 0.017010845
0.048099626 0.028674856 -0.0015894582 0.024295362 -0.0048719733 -0.01936344 0.001060542 0.0045616208
0.0517975 -0.0071905004 0.02838437 0.015227969 0.049562242 0.020706605 0.0011712331 0.0059975227
0.07178441 -0.014636466 0.025387524 0.03452957 0.03179415 0.054074544 -0.007313301 0.059009455
0.031141665 -0.010998174 0.018344704 0.050079323 -0.025013622 0.064234495 -0.00059331645 0.041616075
0.04288229 -0.0061815325 -0.027620198 0.017114742 -0.009226131 0.005344289 0.03337328 -0.004993749
0.05496564 -0.045510624 -0.02008875 0.03986198 0.00931075 0.062667675 0.022856535 0.0016395509
0.05939096 0.009130464 -0.035454635 0.012602549 0.046207245 0.043443713 0.06072834 -0.0033055248
0.031558152 0.061717078 0.014845168 0.0070692794 0.0028084554 0.011794337 0.05985613 0.040013794
-0.004435598 0.043213587 0.056662127 0.013431255 0.013369736 0.0012614052 0.044649728 0.018707952
0.03301454 0.043681324 -0.0059929574 0.0054973983 -0.009885077 -0.0135115525 -0.028370583 0.035908524
0.044012386 -0.010082888 0.024364922 -0.0026233206 0.0384349 0.036113124 0.06658561 -0.007011284
00000000: daf7 f7bb b2b2 7ebb d2cd 10ba 89a2 04bd
00000010: 2ad7 263d c2af 50bc 27d6 a0b9 b7c8 22bc
00000020: 5438 e53a 5611 19bc ded8 d6bb e296 8b3d
00000030: 4517 b53c e4e3 81b8 e17f 053d f9b3 293d
00000040: 5e21 01bb c952 093d f4ba 953c 3965 8cbc
00000050: 557a 633d 6d2a 213d 6b9f 593d 9a94 203d
00000060: 22c7 993c d16f 0f3d 7126 473a 68ae 953d
00000070: 75c0 ecbc f257 383d 3fcc bbbc abd9 99bc
00000080: 6f59 333d a8eb 873d cde6 c4bb f461 343d
00000090: ffbb 83bc 9171 7e3c 51a5 ab3d 54e3 623d
000000a0: e802 3abc 3089 533d 7a7d 5f3d 67fb c93c
000000b0: 6a22 303d c198 cdbc 97d5 073d 57bd e73c
000000c0: 40c5 f73b a970 483d 53bc c7bc 924c 8a3d
000000d0: 0b04 083d 2a2c 823d fd90 6f3b cd50 adbb
000000e0: 4486 683d 7e94 343d 716d 833d 4e50 173d
000000f0: 8743 993b e11e 183c 6ae1 0cbd 3d65 fbba
00000100: 3c91 7f3d 3ac6 c83c 233e 9d3c 3a60 473d
00000110: 1484 943d be96 b63c aa8e f33c ff84 a53d
00000120: 8493 333d 14c1 a9bc 18b1 4cbc 0a53 93bb
00000130: b689 3a3d 2ab4 b8bc ab93 c5bc 47d0 cb3c
00000140: 5dd7 15bb e811 283d d103 1c3d 277f e63c
00000150: 229a 523d ac79 37bc afd7 033b c613 32bc
00000160: cb54 833c db33 483d 7a2c 813c f5a1 6d3d
00000170: 5260 1d3d be65 bbbc 4920 343d 9028 9b3b
00000180: 8606 7fbc 3daf 243d d783 cf3c fe77 07bd
00000190: 7f82 1d3b 78c1 8a3d 9065 5a3c b5b6 833d
000001a0: 2603 883a 19ef 9c3d 4cf7 643b 9d51 313d
000001b0: 16c7 ad3b e2ef 223c 74cb 113d 4823 313d
000001c0: c10c 48bc e2b6 02bc 0834 8f3c 3e1f 113d
000001d0: 47a2 4c3d 149d ef39 3e06 aebb 0fc4 bd3c
000001e0: 895e 4d3c e93b 063d f931 323d b14c be3c
000001f0: fea0 063d 831c 483d fb78 3e3d d8dd ee3c
00000200: 4e12 d53c 8c78 1ebd c22e 913d 2d40 423c
00000210: 8b62 a43c 2b60 913d db72 8b3d 4c07 2fbd
00000220: 8910 4b3d 6bee c1bb adc9 563c 234a a93c
00000230: 7b09 92bc 8cdb 393c 583c 393d d738 01bb
00000240: 9cb3 fb3c 5c0c 7a3d b39f d83c 5377 da3c
00000250: 6bb5 753d 1d2f df3a d036 8e3c a506 9cbc
00000260: 3d7e 3a3c bc61 953c a6d6 493d 41b8 1b3d
00000270: acb0 8e3c b833 953c 28cb 293d 3ce8 0e3c
00000280: e147 443c 7f2a bd3c 5291 6d3b 2d37 423d
00000290: 848c 033d 0dc4 833c 7a1c a13c 545a 8b3c
000002a0: 1d04 453d 88e7 ea3c 5e55 d0ba 1107 c73c
000002b0: 13a5 9fbb 14a0 9ebc e201 8b3a a679 953b
000002c0: 9e29 543d 4a9e ebbb 5786 e83c bb7e 793c
000002d0: c701 4b3d e6a0 a93c 1084 993a de86 c43b
000002e0: b403 933d cacd 6fbc 7ff9 cf3c e16e 0d3d
000002f0: 953a 023d 457d 5d3d 6aa4 efbb e6b3 713d
00000300: ce1c ff3c af31 34bc a247 963c fa1f 4d3d
00000310: 5ee9 ccbc 608d 833d cb88 1bba 9e75 2a3d
00000320: 57a5 2f3d 748e cabb c143 e2bc 3734 8c3c
00000330: 3329 17bc 251f af3b 6cb2 083d 9aa2 a3bb
00000340: a723 613d 5969 3abd 2a91 a4bc 5146 233d
00000350: 1e8c 183c e957 803d a13d bb3c 33e6 d63a
00000360: ef43 733d f197 153c e138 11bd ec7a 4e3c
00000370: cf43 3d3d 09f2 313d 48be 783d 81a1 58bb
00000380: 1f43 013d 0ccb 7c3d 2639 733c 6aa5 e73b
00000390: 100e 383b 093d 413c b42b 753d 81e5 233d
000003a0: 7e58 91bb bb00 313d 8c16 683d c40e 5c3c
000003b0: bd0c 5b3c bc55 a53a a2e2 363d 6b41 993c
000003c0: 413a 073d 30eb 323d 9260 c4bb 8523 b43b
000003d0: 05f5 21bc 8f5f 5dbc 6d69 e8bc d114 133d
000003e0: 5546 343d b332 25bc f298 c73c 04ec 2bbb
000003f0: ea6d 1d3d 5beb 133d 095e 883d eabe e5bb

l2.bias f4 [256]
0.019093767 0.011014165 0.0034879239 0.051242765 0.001219013 0.04487865 -0.023416117 0.04217848
0.046105072 -0.030902417 -0.037443083 0.016517464 4.7578495e-05 0.05090371 0.019541971 0.037243295
-0.021754969 0.014331259 0.004621374 -0.041335143 -0.040652573 0.0024301799 0.04938622 0.030889256
-0.022848533 0.055670884 -0.029282626 -0.019511404 0.0025652158 -0.036915552 0.02160089 -0.008479348
-0.028299877 0.026441902 -0.039265234 0.029550707 0.01245254 -0.026682172 0.020653803 0.0031802324
0.0018464394 -0.0026711107 0.016139938 -0.04307243 0.022234721 -0.0072543104 0.0077829687 -0.005248139
0.03369781 0.048478108 -0.0016308937 0.057533648 0.0009071644 0.05819521 0.025020944 0.03131954
0.035196207 0.02080775 -0.03698378 0.039283168 -0.024800697 -0.048582647 -0.04348538 -0.040105
-0.032440413 -0.016467758 0.06199036 0.055471797 0.025325367 0.030179942 0.013631305 0.04305391
-0.0038975752 -0.02910246 0.002883564 0.0043508816 -0.027514817 -0.0006276356 -0.043935712 0.027484342
-0.0071709496 -0.025869302 -0.016212268 -0.031751066 -0.03718438 0.011627556 0.0055114506 -0.006679692
-0.010073433 0.025262227 0.033902325 -0.0054903794 -0.002607023 0.007914948 0.047860213 -0.011365345
-0.046044163 -0.019445155 0.047914676 0.023324167 -0.015478199 -0.0056059454 -0.010011109 -0.045133073
0.03375768 0.025635734 0.030763462 0.03011919 0.011351906 -0.040213488 0.028194873 0.032763306
-0.0012067248 -0.0031889814 -0.015554897 0.0112534985 0.030097317 0.03133031 0.026215404 -0.028819557
0.033995684 -0.020206422 -0.005872817 -0.04311225 0.04423777 0.028792942 0.02674034 0.014620904
0.02466101 0.06591554 0.040509515 0.07055053 0.0015028388 0.007934047 -0.021045981 -0.048602775
-0.0039130193 0.018251678 0.034739524 -0.005501211 0.020722842 0.012227537 -0.04425401 -0.039134692
-0.03401498 0.047662918 0.03759681 -0.03162742 -0.016473271 0.034522325 0.03537355 -0.010294502
0.001160843 0.05895098 -0.034438588 0.013834572 -0.0063701356 0.002087091 0.004426711 -0.007211511
-0.01343945 -0.05040781 0.034252804 -0.008606178 0.0733828 -0.031386606 0.04673358 0.005302314
0.034439918 -0.020285442 -0.018470867 0.01249527 0.02289356 0.029860828 -0.039438605 0.010560446
0.03128146 -0.0066915173 0.054248035 0.0016498624 -0.0124772135 -0.016208779 -0.0002360073 -0.034271613
0.021460664 -0.008467153 -0.027112167 0.028175857 0.036767766 -0.03971628 -0.03713656 0.028792897
0.01679877 0.03275141 0.043748938 0.018093336 0.0063080387 -0.016432347 0.018167423 0.05394446
0.060328674 0.04235856 -0.023053944 0.027651588 0.025593888 0.020205036 -0.03385608 -0.028141478
0.04765137 0.0214224 0.043578543 -0.0483107 -0.0040380345 0.0007816616 0.044625107 -0.036374617
-0.026222294 0.027674599 0.010359712 -0.0064991554 0.020374294 0.036690623 0.011849049 -0.0022145251
-0.006685329 0.008504318 -0.012525324 -0.014168315 -0.007397686 -0.013666934 -0.03938906 0.039204504
0.017323045 -0.018753037 -0.0048379432 -0.038169883 -0.03157863 -0.017040143 -0.025553912 -0.024855297
0.0023197639 0.047585033 0.013143447 0.045688797 -0.014435445 -0.042174555 0.02630197 -0.042235427
-0.025129067 0.032418363 -0.008066987 -0.03722126 -0.026666418 -0.027223941 0.0165126 0.057885375
00000000: 886a 9c3c c274 343c a795 643b efe3 513d
00000010: 4ac7 9f3a add2 373d 28d3 bfbc 58c3 2c3d
00000020: acd8 3c3d 1127 fdbc eb5d 19bd a24f 873c
00000030: 058f 4738 6980 503d 7c16 a03c 6d8c 183d
00000040: 7a37 b2bc a8cd 6a3c e56e 973b 0a4f 29bd
00000050: 5083 26bd a743 1f3b 3449 4a3d 770b fd3c
00000060: d92c bbbc 2707 643d 1ee2 efbc 61d6 9fbc
00000070: 2e1d 283b c334 17bd 5af4 b03c f7ec 0abc
00000080: 25d5 e7bc b09c d83c 95d4 20bd 5314 f23c
00000090: bd05 4c3c 9294 dabc 2a32 a93c 726b 503b
000000a0: 3a04 f23a cd0d 2fbb e737 843c b76c 30bd
000000b0: 9725 b63c 91b5 edbb 4608 ff3b 95f8 abbb
000000c0: b706 0a3d fb90 463d b6c3 d5ba 67a8 6b3d
000000d0: c6ce 6d3a 1a5e 6e3d b9f8 cc3c eb48 003d
000000e0: e629 103d 0475 aa3c 4e7c 17bd 63e7 203d
000000f0: d52a cbbc 99fe 46bd ba1d 32bd 2445 24bd
00000100: 3de0 04bd 64e7 86bc 9be9 7d3d 6536 633d
00000110: 2577 cf3c ed3b f73c d655 5f3c 4c59 303d
00000120: 766e 7fbb 4868 eebc 2dfa 3c3b d791 8e3b
00000130: c166 e1bc ea87 24ba eff5 33bd d826 e13c
00000140: 49fa eabb dceb d3bc 97cf 84bc 680d 02bd
00000150: a64e 18bd 8181 3e3c 6699 b43b 51e1 dabb
00000160: 0a0b 25bc bbf2 ce3c 2add 0a3d a4e8 b3bb
00000170: 97da 2abb b3ad 013c 1209 443d b635 3abc
00000180: ce98 3cbd 724b 9fbc 2e42 443d 5312 bf3c
00000190: 4698 7dbc 14b2 b7bb a205 24bc 75dd 38bd
000001a0: 7e45 0a3d 0802 d23c a803 fc3c 85bc f63c
000001b0: 58fd 393c e6b6 24bd eff8 e63c d132 063d
000001c0: f72a 9eba 3bfe 50bb f7d9 7ebc 9860 383c
000001d0: a68e f63c 3654 003d b0c1 d63c fe16 ecbc
000001e0: 0f3f 0b3d f087 a5bc c270 c0bb 7896 30bd
000001f0: aa32 353d 2ddf eb3c 8f0e db3c 848c 6f3c
00000200: e305 ca3c bafe 863d 4eed 253d cc7c 903d
00000210: e7fa c43a cefd 013c 9f68 acbc b413 47bd
00000220: c938 80bb 8b84 953c 084b 0e3d 8143 b4bb
00000230: f3c2 a93c 0256 483c b143 35bd b34b 20bd
00000240: 4b53 0bbd 313a 433d 1dff 193d c18b 01bd
00000250: f4f2 86bc 4867 0d3d dbe3 103d 45aa 28bc
00000260: 6d27 983a 9576 713d 7a0f 0dbd 67aa 623c
00000270: 92bc d0bb 94c7 083b f10d 913b 8a4e ecbb
00000280: 2431 5cbc 6b78 4ebd ab4c 0c3d ed00 0dbc
00000290: b949 963d 3e8f 00bd b66b 3f3d 09bf ad3b
000002a0: df10 0d3d a82d a6bc 3750 97bc f6b8 4c3c
000002b0: 468b bb3c b29e f43c 608a 21bd b905 2d3c
000002c0: fd20 003d 8444 dbbb 3033 5e3d 3240 d83a
000002d0: 3a6d 4cbc 46c8 84bc ba78 77b9 6460 0cbd
000002e0: 46ce af3c d0b9 0abc 561a debc 0ed1 e63c
000002f0: cc99 163d 8aad 22bd 811c 18bd 15df eb3c
00000300: 939d 893c 5826 063d 1632 333d 7a38 943c
00000310: aab3 ce3b 219d 86bc d9d3 943c def4 5c3d
00000320: 331b 773d 2b80 2d3d a0db bcbc 9585 e23c
00000330: 46aa d13c 0885 a53c acac 0abd f588 e6bc
00000340: 152e 433d 077e af3c 6a7f 323d 71e1 45bd
00000350: 7d51 84bb 6ce8 4c3a d1c8 363d 8dfd 14bd
00000360: 23d0 d6bc d7b5 e23c c8bb 293c def6 d4bb
00000370: fee7 a63c e848 163d 8322 423c 9121 11bb
00000380: 9b10 dbbb b255 0b3c 0437 4dbc 3822 68bc
00000390: 4a68 f2bb 47eb 5fbc 6c56 21bd e794 203d
000003a0: 0fe9 8d3c f89f 99bc 9c87 9ebb 0658 1cbd
000003b0: 9858 01bd c597 8bbc 7056 d1bc 569d cbbc
000003c0: 2e07 183b 86e8 423d 9d57 573c 2d24 3b3d
000003d0: a582 6cbc 3abf 2cbd 3b77 d73c 0eff 2cbd
000003e0: 79db cdbc 1ec9 043d 652b 04bc 5275 18bd
000003f0: 8873 dabc be04 dfbc 6f45 873c 3719 6d3d

l3.weight f4 [128, 256]
-0.05822072 -0.044771135 0.027868887 -0.06340126 0.006120024 -0.017414583 -0.031561315 0.02348768
0.03282135 0.03871067 -0.02952056 -0.06363232 -0.021806793 -0.036883693 0.055128954 0.0027594334
0.051232923 0.042444795 0.02886957 -0.055435736 0.027610553 0.04791753 -0.011977257 -0.058398116
-0.038967624 0.047335587 -0.031119972 -0.059372693 -0.017276421 0.041384693 0.017931264 -0.050429907
-0.010208673 0.05015268 0.0107464995 -0.0476705 0.028516898 -0.055204377 0.015268077 0.017097535
0.022594117 -0.039026387 -0.013302501 0.03187561 0.051834807 0.062305816 0.051955685 0.023817213
-0.037664246 0.039103393 -0.027541107 0.009093866 0.0427913 0.019634662 0.02012564 0.03750184
0.016168201 0.038795248 -0.009268266 -0.05119979 -0.0019025903 -0.064505465 0.00902006 -0.039857965
-0.025498338 0.050363682 -0.00872437 -0.00063842523 -0.067044206 -0.01300999 -0.06820344 0.030573832
-0.037331518 -0.030620972 0.03741707 0.05118476 -0.037563574 -0.044249143 -0.01630737 0.022834545
-0.0097303465 -0.0346675 -0.059326675 -0.057205204 0.009587654 -0.058735188 -0.03963975 0.018175209
-0.04891032 -0.04867999 -0.05161619 0.04474858 0.020579396 -0.06526296 -0.008904001 -0.06134795
-0.04370248 0.005165253 -0.06266282 -0.0034325619 -0.010916864 -0.02495078 0.048218966 0.030451996
-0.014961977 -0.048705757 -0.020280436 -0.058111936 0.042797394 -0.052463546 0.04480492 0.0028761083
0.012011625 -0.020636806 0.05241066 -0.045467686 0.043634567 0.043692682 -0.010199969 -0.021655876
-0.04015398 0.03348392 -0.06601377 0.046055704 -0.050820567 0.026071558 -0.0634435 0.014363242
-0.06440543 0.0017084837 -0.04340005 -0.048548836 -0.0023624466 -0.017617961 0.041390374 -0.014022362
0.03284633 -0.017059203 0.0022759668 0.0005042189 0.043651585 -0.031213649 -0.01920082 -0.005216003
0.060392372 0.018499818 0.007038002 0.039114706 0.061158303 0.0302255 0.032332752 -0.044815768
-0.045640133 0.054740146 -0.0063369125 0.0014566907 -0.0027449047 0.0410946 -0.057547823 -0.01883339
0.009225414 0.04062963 0.046992246 0.013508115 0.066322744 -0.04579653 0.061715253 0.015589068
-0.06574477 -0.02218094 0.028878532 -0.06338555 0.04810607 0.0096118 -0.0070088143 -0.058875382
0.064057305 -0.046730414 -0.009464609 0.043933395 -0.07014725 -0.048503302 -0.04522341 0.026431713
-0.0049659046 0.045285586 0.02307348 -0.014580434 0.024589717 0.020837879 0.037857845 0.013925142
-0.011209786 0.029676657 -0.034274854 -0.013270603 -0.02946025 -0.019310942 -0.0324515 0.018557582
-0.06286329 0.027023688 -0.066067755 -0.035806417 -0.052824885 0.06059679 0.05044598 -0.042075384
-0.03358139 0.0012553113 -0.05468804 0.050810806 -0.020415075 0.021529347 0.048462335 0.05414658
-0.043044664 -0.02462797 0.029256862 0.031440992 -0.061114658 -0.054635737 -0.0031996306 0.014409551
0.0054067583 -0.008821989 0.04810309 0.03701036 0.05018818 -0.055715274 -0.056896944 -0.025220139
-0.029615419 -0.042894952 -0.001076127 0.029809231 0.046916485 -0.0037220956 -0.06281756 -0.0306915
-0.060850255 -0.026668431 -0.04531202 -0.040351175 -0.016868107 0.018599275 -0.038974684 -0.017473005
-0.043596648 0.025431924 0.044664964 0.047643967 -0.0063082264 0.04989749 -0.013602355 0.008811057
00000000: da78 6ebd f061 37bd 4b4d e43c 85d8 81bd
00000010: 7b8a c83b 07a9 8ebc 7046 01bd 3c69 c03c
00000020: ae6f 063d 148f 1e3d 1ad5 f1bc a951 82bd
00000030: 29a4 b2bc 5b13 17bd e6ce 613d 9cd7 343b
00000040: 9dd9 513d 98da 2d3d e07f ec3c 9510 63bd
00000050: 872f e23c 2c45 443d 423c 44bc dd32 6fbd
00000060: 849c 1fbd f6e2 413d 50ef febc c830 73bd
00000070: 4887 8dbc ff82 293d 96e4 923c 978f 4ebd
00000080: 4742 27bc e66c 4d3d 1612 303c 2442 43bd
00000090: 459c e93c fc1d 62bd f526 7a3c 2110 8c3c
000000a0: 4c17 b93c 22da 1fbd bcf2 59bc 0090 023d
000000b0: bc50 543d 6234 7f3d 7ccf 543d 511c c33c
000000c0: d345 1abd e12a 203d e39d e1bc 70fe 143c
000000d0: ee45 2f3d dfd8 a03c 87de a43c 889b 193d
000000e0: 2d73 843c c4e7 1e3d edd9 17bc dfb6 51bd
000000f0: 5660 f9ba 711b 84bd e0c8 133c 1b42 23bd
00000100: e4e1 d0bc 264a 4e3d a9f0 0ebc fe5b 27ba
00000110: 794e 89bd da27 55bc 3fae 8bbd f975 fa3c
00000120: efe8 18bd d5d8 fabc a442 193d 1ca7 513d
00000130: 43dc 19bd 973e 35bd 0997 85bc 830f bb3c
00000140: 086c 1fbc 82ff 0dbd 8700 73bd 0150 6abd
00000150: 8915 1d3c 4f94 70bd 4a5d 22bd 2de4 943c
00000160: 3056 48bd ab64 47bd 7f6b 53bd 494a 373d
00000170: 1f96 a83c 96a8 85bd 16e2 11bc fd47 7bbd
00000180: 5f01 33bd 4841 a93b 5d55 80bd d5f4 60bb
00000190: a5dc 32bc 9465 ccbc 4081 453d 7776 f93c
000001a0: 1423 75bc b07f 47bd 2823 a6bc c806 6ebd
000001b0: 524c 2f3d 04e4 56bd 5d85 373d 177d 3c3b
000001c0: 68cc 443c 850e a9bc 8fac 563d 533c 3abd
000001d0: 29ba 323d 19f7 323d c51d 27bc aa67 b1bc
000001e0: 8078 24bd 6f26 093d 3a32 87bd e8a4 3c3d
000001f0: 3a29 50bd 0594 d53c aaee 81bd ce53 6b3c
00000200: fee6 83bd 33ef df3a 40c4 31bd 25db 46bd
00000210: 47d3 1abb 8b53 90bc f488 293d 0dbe 65bc
00000220: e089 063d bebf 8bbc 6328 153b 8f2d 043a
00000230: 01cc 323d c4b3 ffbc 0a4b 9dbc 01eb aabb
00000240: fe5d 773d ee8c 973c 0a9f e63b be36 203d
00000250: 2181 7a3d 789b f73c 596f 043d bd90 37bd
00000260: 26f1 3abd 3437 603d e0a5 cfbb 6eee be3a
00000270: dce3 33bb d052 283d 44b7 6bbd 7b48 9abc
00000280: 3126 173c 416b 263d f17a 403d 2451 5d3c
00000290: 38d4 873d 2495 3bbd 22c9 7c3d 4a69 7f3c
000002a0: 32a5 86bd cdb4 b5bc ac92 ec3c 49d0 81bd
000002b0: df0a 453d d07a 1d3c 32aa e5bb 5027 71bd
000002c0: 7a30 833d 6468 3fbd 7311 1bbc 81f3 333d
000002d0: 5da9 8fbd 66ab 46bd 2f3c 39bd 5287 d83c
000002e0: 07b9 a2bb 617d 393d 9804 bd3c c6e2 6ebc
000002f0: 6070 c93c 33b4 aa3c d410 1b3d 4726 643c
00000300: 40a9 37bc 761c f33c ca63 0cbd f16c 59bc
00000310: 9f56 f1bc fb31 9ebc ddeb 04bd 1206 983c
00000320: 78be 80bd c860 dd3c 884e 87bd c0a9 12bd
00000330: e85e 58bd 5734 783d 72a0 4e3d 3d57 2cbd
00000340: a48c 09bd 4289 a43a 9100 60bd fe1e 503d
00000350: 843d a7bc 505e b03c 7180 463d cec8 5d3d
00000360: 9a4f 30bd 99c0 c9bc 16ac ef3c 45c8 003d
00000370: 5d53 7abd b9c9 5fbd e5b0 51bb 0a16 6c3c
00000380: 2d2b b13b 1b8a 10bc bf07 453d 2d98 173d
00000390: 1f92 4d3d b335 64bd c50c 69bd 779a cebc
000003a0: 099c f2bc 9eb2 2fbd d50c 8dba 7d32 f43c
000003b0: 802b 403d 67ee 73bb 7ea6 80bd be6c fbbc
000003c0: 1e3e 79bd c177 dabc 1999 39bd 4647 25bd
000003d0: fc2e 8abc 825d 983c eba3 1fbd 8c23 8fbc
000003e0: 6692 32bd 9c56 d03c 9cf2 363d 5226 433d
000003f0: 3db5 cebb 4f61 4c3d 69dc 5ebc 405c 103c

l3.bias f4 [128]
-0.049215753 0.038664564 0.050400186 0.05904762 0.01618501 0.021631772 -0.010544415 -0.03866327
-0.0043298905 -0.03847456 -0.014222443 0.036602873 -0.074057326 0.042834666 0.044202406 0.05072364
-0.04678356 0.03144065 0.07797126 0.009351671 -0.0023381105 -0.04156481 0.04877405 0.07738502
-0.051375147 0.0081241205 -0.0055647683 0.00067204016 0.010318378 -0.037150685 -0.0017717305 -0.023209509
-0.026310632 -0.06514161 -0.020738292 -0.02170815 -0.00292958 -0.003911802 -0.005329998 -0.0003178223
-0.052736793 -0.016475782 -0.051098384 -0.065341175 0.062836945 0.0732646 -0.0006802647 -0.010853542
-0.051403645 0.0014478376 -0.0258867 0.026960978 -0.03312897 -0.032310445 -0.023182044 -0.027026035
-0.06013438 0.010315068 0.062206212 -0.033505738 0.044029452 0.050355356 0.029677447 0.039035026
-0.0010074872 0.028925631 -0.060540657 -0.020187689 -0.036760088 0.051555265 -0.025939979 -0.038977824
-0.025964282 -0.059904493 -0.014564536 0.04961435 0.083715886 0.042144578 -0.050597064 -0.027101403
-0.01994451 0.027124463 0.017438943 0.054846324 0.07943127 -0.03234163 -0.008870708 0.03847075
0.040673085 0.063160345 -0.03507593 0.002483296 -0.016726818 0.044585053 0.047579605 0.027920697
0.042042956 -0.044031326 -0.0018716976 -0.035247196 -0.00049517065 0.0067045554 0.054069396 0.06719685
-0.045039974 0.04225066 0.06166237 0.031332847 0.039106615 -0.04687042 -0.05432943 -0.034876402
0.042480547 -0.044415273 0.010127182 -0.00038456055 0.079667814 0.08946288 -0.042122476 0.054854028
-0.028086176 0.01791969 -0.01950541 -0.00091796624 0.013712219 -0.031394057 -0.03343864 0.042808697
00000000: 7596 49bd bc5e 1e3d 6d70 4e3d ebdb 713d
00000010: 6d96 843c 1d35 b13c 7bc2 2cbc 615d 1ebd
00000020: c1e1 8dbb 8097 1dbd 4005 69bc e5ec 153d
00000030: 5eab 97bd 6773 2f3d 950d 353d 97c3 4f3d
00000040: 1ea0 3fbd e9c7 003d 65af 9f3d c037 193c
00000050: fc3a 19bb dd3f 2abd 4cc7 473d 0a7c 9e3d
00000060: bf6e 52bd 081b 053c a958 b6bb da2b 303a
00000070: 6a0e 293c 512b 18bd 6939 e8ba de21 bebc
00000080: 6589 d7bc f768 85bd 5ae3 a9bc 4ad5 b1bc
00000090: 32fe 3fbb 932e 80bb 44a7 aebb 63a1 a6b9
000000a0: 8902 58bd 38f8 86bc 8a4c 51bd 98d1 85bd
000000b0: a8b0 803d c00b 963d cb53 32ba 0ed3 31bc
000000c0: a18c 52bd 5ec5 bd3a 5810 d4bc 45dd dc3c
000000d0: 3eb2 07bd f557 04bd 45e8 bdbc b465 ddbc
000000e0: 784f 76bd 8800 293c f1cb 7e3d 503d 09bd
000000f0: 3a58 343d 6b41 4e3d 1e1e f33c 31e3 1f3d
00000100: a90d 84ba 72f5 ec3c 7bf9 77bd a760 a5bc
00000110: bf91 16bd 9d2b 533d 1480 d4bc 36a7 1fbd
00000120: 0cb3 d4bc 6a5e 75bd 17a0 6ebc 6b38 4b3d
00000130: 3c73 ab3d cb9f 2c3d de3e 4fbd c303 debc
00000140: ab62 a3bc 1f34 de3c 1ddc 8e3c 8aa6 603d
00000150: ddac a23d a878 04bd 7256 11bc 8193 1d3d
00000160: d298 263d 365a 813d c7ab 0fbd cbbe 223b
00000170: ae06 89bc d19e 363d d5e2 423d f2b9 e43c
00000180: 3c35 2c3d 315a 34bd c053 f5ba 5d5f 10bd
00000190: 57ce 01ba e3b1 db3b df77 5d3d 819e 893d
000001a0: d67b 38bd 070f 2d3d ae91 7c3d df56 003d
000001b0: 422e 203d 33fb 3fbd 8988 5ebd 8fda 0ebd
000001c0: 1500 2e3d caec 35bd 7bec 253c d89e c9b9
000001d0: e128 a33d 5038 b73d 9e88 2cbd 9eae 603d
000001e0: fb14 e6bc 50cc 923c cfc9 9fbc aca3 70ba
000001f0: 37a9 603c 0e97 00bd f5f6 08bd 2c58 2f3d

l4.weight f4 [64, 128]
-0.05040211 0.05542291 0.017093508 -0.052821998 -0.013627984 -0.057037313 -0.07589132 -0.012792431
-0.07518095 0.027881898 0.007477036 0.07827281 -0.0018116534 -0.064555176 -0.08295795 -0.007666476
-0.028209127 0.030644525 -0.0040353606 0.016085567 0.029224038 0.050832856 -0.014492281 0.0012812443
-0.055753514 0.056634016 -0.038549088 0.07301952 -0.008971226 0.008831832 0.08150507 0.099426486
0.0994879 0.02055049 0.09038202 0.05239134 0.07530529 -0.07658995 -0.035571475 0.06544812
-0.073328085 0.07130462 0.0863153 -0.009487526 -0.0014637683 -0.048383716 -0.08690582 -0.01033552
-0.05650285 0.021080466 0.08768254 0.065168284 0.0709004 0.098744854 -0.031256 0.06033472
0.07260676 0.0674076 0.04051554 -0.07376038 0.04074969 0.03260185 -0.03960566 -0.06850704
0.024004994 -0.02728115 -0.07216515 -0.029437251 0.047655027 -0.048016876 0.027756466 0.021569058
0.08693092 -0.029589057 0.02880102 0.03839087 0.03624279 0.051979616 0.06306847 0.093809344
0.031222515 -0.057889745 -0.02859829 0.07239219 0.00490116 0.029866531 -0.049278457 0.028117493
0.0654029 -0.03604065 0.022114985 -0.037010055 -0.001776578 -0.05222643 0.07621002 -0.057454545
0.07354305 -0.052710764 -0.008649504 -0.087474585 0.05285665 0.07875926 0.017376905 -0.028319519
0.04817053 -0.005005762 0.0005351677 0.02959282 0.0715571 0.0019125195 0.05501888 0.07821565
-0.04646451 -0.053101767 0.067482136 -0.004200829 -0.06309472 0.058037803 -0.06170781 -0.058568414
0.07154536 0.0689907 -0.055803347 0.082857475 -0.04258099 -0.033199955 0.04675448 -0.05381165
0.05105696 -0.050382417 0.045977198 0.049973853 0.08687375 0.0116543025 0.042369924 -0.08319231
0.024060115 0.077656604 -0.06382483 0.00963632 -0.035644367 0.0639512 0.05952456 -0.07358505
-0.055026926 -0.035565764 -0.035753172 -0.08296501 -0.08421331 -0.00064624846 -0.045448232 0.03468535
-0.039410148 0.028554931 -0.030094694 0.061076395 0.024979427 -0.06327635 0.050795637 0.007700026
-0.024417177 -0.009355091 0.068616964 -0.0062463284 -0.05596148 -0.023153484 -0.021156736 0.038114496
-0.03476468 -0.07763715 -0.07975646 -0.014185041 0.003412284 -0.04988404 0.02317772 0.029568195
0.064316325 0.070492916 -0.0073591545 -0.03308301 -0.029005248 0.0854465 -0.049982082 -0.037228037
0.046239756 -0.070038915 -0.02602847 -0.03225624 -0.08296522 0.04497107 -0.03947205 0.08174569
-0.02071178 -0.011508681 0.08325224 0.012212172 -0.0073111206 0.049112566 -0.05910986 0.04422561
0.07544146 0.020456783 -0.0313528 0.01829864 -0.0075034797 -0.034249995 0.08760109 0.04732161
0.0077796355 0.058709078 0.010848001 -0.0017587915 -0.0016709194 0.06979839 0.040586747 -0.0075867474
-0.051343903 0.024006046 0.060368396 0.005697593 -0.0755997 0.010406077 -0.06730895 -0.0032862425
0.04844538 0.03616851 -0.037194476 0.08165748 0.07338736 0.07805925 0.0647768 -0.02821507
-0.04400174 0.03526032 -0.0864551 -0.083763644 -0.073077485 -0.0011356995 0.08732698 0.023502298
-0.07239171 0.01487489 0.06456526 -0.073554404 -0.0073976964 -0.08219789 -0.04580921 -0.014669135
-0.017318986 -0.031989142 -0.049174845 0.026507944 0.06916507 0.04330007 0.06003476 -0.033781614
00000000: 7172 4ebd 2203 633d af07 8c3c e15b 58bd
00000010: e847 5fbc f59f 69bd e96c 9bbd 5897 51bc
00000020: 78f8 99bd 9468 e43c ed01 f53b 7f4d a03d
00000030: 0075 edba 8135 84bd dce5 a9bd 1037 fbbb
00000040: d416 e7bc 3a0a fb3c 0f3b 84bb e1c5 833c
00000050: 4067 ef3c 1d36 503d 0871 6dbc 6def a73a
00000060: cc5d 64bd 12f9 673d a6e5 1dbd 428b 953d
00000070: 0dfc 12bc 63b3 103c 21ec a63d 1da0 cb3d
00000080: 50c0 cb3d 8059 a83c 351a b93d 4d98 563d
00000090: a939 9a3d 31db 9cbd 65b3 11bd aa09 863d
000000a0: 092d 96bd 2808 923d 13c6 b03d 9171 1bbc
000000b0: eadb bfba 012e 46bd aefb b1bd 5056 29bc
000000c0: 886f 67bd f1b0 ac3c e792 b33d f376 853d
000000d0: 3b34 913d be3a ca3d 4b06 00bd 8a21 773d
000000e0: dab2 943d ff0c 8a3d 9ff3 253d af0f 97bd
000000f0: 26e9 263d 8489 053d 8b39 22bd 6b4d 8cbd
00000100: 1fa6 c43c b87c dfbc 52cb 93bd 6426 f1bc
00000110: eb31 433d 58ad 44bd 8761 e33c 98b1 b03c
00000120: d708 b23d c064 f2bc 1ef0 eb3c bf3f 1d3d
00000130: 5273 143d 94e8 543d 0b2a 813d 1d1f c03d
00000140: 5cc6 ff3c cc1d 6dbd f646 eabc 5b42 943d
00000150: e999 a03b a8aa f43c 35d8 49bd a856 e63c
00000160: f5f1 853d 5c9f 13bd 7c2a b53c db97 17bd
00000170: 11dc e8ba 62eb 55bd 0014 9c3d 7555 6bbd
00000180: bd9d 963d 3ee7 57bd a6b6 0dbc e025 b3bd
00000190: 3780 583d 894c a13d 035a 8e3c 56fe e7bc
000001a0: 764e 453d 6007 a4bb 7f4a 0c3a a46c f23c
000001b0: 878c 923d 81ad fa3a 7a5b 613d 872f a03d
000001c0: 9251 3ebd 3d81 59bd 1334 8a3d 1ca7 89bb
000001d0: ce37 81bd 0cb9 6d3d 54c1 7cbd 6fe5 6fbd
000001e0: 6086 923d ff4a 8d3d 0d92 64bd 2eb1 a93d
000001f0: 6769 2ebd adfc 07bd a081 3f3d 9b69 5cbd
00000200: 1a21 513d cb5d 4ebd 9652 3c3d 62b1 4c3d
00000210: ddea b13d b0f1 3e3c 168c 2d3d bb60 aabd
00000220: b819 c53c 6d0a 9f3d 98b6 82bd a8e1 1d3c
00000230: d4ff 11bd d9f8 823d 06d0 733d c2b3 96bd
00000240: ea63 61bd 68ad 11bd eb71 12bd 8fe9 a9bd
00000250: 0778 acbd 0069 29ba ed27 3abd 3a12 0e3d
00000260: 896c 21bd 08ec e93c 2689 f6bc 3e2b 7a3d
00000270: a8a1 cc3c 0897 81bd 160f 503d 8050 fc3b
00000280: 8806 c8bc 1846 19bc 0d87 8c3d 00ae ccbb
00000290: dd37 65bd 60ac bdbc e450 adbc f21d 1c3d
000002a0: 6965 0ebd 3a00 9fbd 5b57 a3bd 6068 68bc
000002b0: a0a0 5f3b 3553 4cbd 34df bd3c 0039 f23c
000002c0: 47b8 833d 975e 903d 1025 f1bb 0d82 07bd
000002d0: 6a9c edbc 93fe ae3d 03ba 4cbd 6d7c 18bd
000002e0: e665 3d3d 9070 8fbd a839 d5bc 1e1f 04bd
000002f0: abe9 a9bd 9633 383d 72ad 21bd 496a a73d
00000300: c0ab a9bc e88e 3cbc 2780 aa3d 9015 483c
00000310: 2092 efbb 422a 493d 2e1d 72bd ea25 353d
00000320: 0d81 9a3d fc94 a73c cb6b 00bd 08e7 953c
00000330: c0df f5bb b949 0cbd 3368 b33d 4ed4 413d
00000340: 50ec fe3b ee78 703d d0bb 313c 4087 e6ba
00000350: c002 dbba 75f2 8e3d 4a3e 263d 409a f8bb
00000360: fc4d 52bd 54a8 c43c da44 773d e0b2 ba3b
00000370: 04d4 9abd 407e 2a3c 46d9 89bd 005e 57bb
00000380: aa6e 463d 6e25 143d 3c59 18bd 093c a73d
00000390: 1d4c 963d 87dd 9f3d b3a9 843d 4a23 e7bc
000003a0: 2b3b 34bd 206d 103d 5f0f b1bd 468c abbd
000003b0: a6a9 95bd c0db 94ba 7dd8 b23d e487 c03c
000003c0: 1b42 94bd d0b5 733c cb3a 843d b1a3 96bd
000003d0: 6068 f2bb 5e57 a8bd 70a2 3bbd d056 70bc
000003e0: 8ce0 8dbc 0c07 03bd 906b 49bd 3027 d93c
000003f0: 6ba6 8d3d 6a5b 313d 02e7 753d 975e 0abd

l4.bias f4 [64]
-0.06271344 -0.03912945 0.06544352 0.07927903 -0.016050264 -0.08345469 -0.08156252 0.068634294
0.01310524 0.034185413 -0.051912557 -0.06847592 0.040993847 0.10912315 -0.043518864 0.02104844
0.06780227 -0.020217715 -0.07443196 0.061726894 0.07509001 -0.04715829 0.035967264 -0.05206572
-0.06977965 0.06411793 0.05695677 0.052719492 0.05499482 -0.023463428 -0.017981173 0.09108978
0.10841417 0.030213032 -0.081172206 -0.035935696 0.009268398 -0.0410534 0.11088062 0.024917126
-0.04787733 -0.054297157 0.07396006 -0.042661626 -0.04443469 -0.0007001215 -0.049771912 0.03876482
0.004602885 0.08220576 0.074352376 -0.011836544 0.09311013 -0.0022805387 0.112098 0.006900513
0.0075658727 -0.07149469 0.08296863 -0.005488854 0.057455387 -0.073492855 -0.08433584 0.022276454
00000000: e76f 80bd 3446 20bd 4107 863d 0b5d a23d
00000010: d87b 83bc 4bea aabd 400a a7bd 2390 8c3d
00000020: 5cb7 563c 0106 0c3d 43a2 54bd 1a3d 8cbd
00000030: 2ae9 273d f57b df3d d640 32bd c76d ac3c
00000040: ebdb 8a3d 9f9f a5bc c96f 98bd 57d5 7c3d
00000050: cbc8 993d 0d29 41bd 6952 133d dd42 55bd
00000060: a2e8 8ebd 4350 833d 814b 693d 65f0 573d
00000070: 4042 613d 6036 c0bc 414d 93bc 478d ba3d
00000080: 4008 de3d 5281 f73c 9d3d a6bd 4f31 13bd
00000090: 7bda 173c 9c27 28bd 6115 e33d 001f cc3c
000000a0: 051b 44bd b266 5ebd 5f78 973d f5bd 2ebd
000000b0: 2601 36bd 5c88 37ba a2dd 4bbd dcc7 1e3d
000000c0: ccd3 963b 7e5b a83d 0f46 983d 10ee 41bc
000000d0: 86b0 be3d 1775 15bb a393 e53d b31d e23b
000000e0: 24eb f73b cf6b 92bd 75eb a93d d8db b3bb
000000f0: 5756 6b3d 6c83 96bd 45b8 acbd 1c7d b63c

l5.weight f4 [10, 64]
0.10062269 -0.09051804 -0.036262948 0.08643953 0.098254904 -0.08031334 0.073955014 0.08436973
-0.073835075 0.025641266 0.0098139495 -0.08279072 0.13549888 0.111456834 0.09752494 -0.10327603
0.055030037 -0.047435023 0.010455959 -0.034662247 -0.1068901 -0.11566239 0.0027169036 -0.013510009
0.015145227 0.03715064 -0.09138137 0.05610512 -0.059338156 0.11470164 0.05988855 0.10226725
0.12904443 0.16814151 -0.025122212 -0.111910895 -0.09560747 -0.11704132 0.14203344 -0.08517298
-0.031203017 -0.09077615 0.064972974 -0.11750065 0.023477966 0.024486402 0.028141482 -8.8550994e-05
0.10135205 0.053601943 -0.024789318 0.018861145 0.10086599 0.04098168 0.16736239 0.097025834
-0.0011319846 0.04667861 0.084106095 -0.031447075 0.047322776 -0.025495244 -0.11886613 0.026511716
-0.040458772 0.083145544 -0.1557714 -0.12787572 -0.09675923 0.14166205 -0.050378963 -0.009394629
0.028147172 0.003217393 -0.00968878 -0.008425713 -0.05320444 -0.08310769 0.035120264 0.16361962
0.06355452 0.1012792 0.1326926 -0.07072224 0.077860005 0.11171518 -0.11723873 0.090230264
0.087014884 -0.1343876 -0.038369864 0.110288575 0.08816329 0.13011806 0.14507392 -0.0047438173
-0.03254993 -0.090913065 0.11091503 0.016846986 -0.032619696 -0.08845998 0.013216214 0.07190008
-0.073897615 0.0018189139 -0.073775314 -0.003925623 -0.020796092 0.0019112214 -0.006894828 0.12064651
-0.053971983 -0.044436667 0.015846884 -0.096861444 -0.061244626 0.01187937 -0.048227876 -0.004305348
-0.018271673 -0.063612774 0.09279311 0.14661497 0.04383657 -0.08601998 0.102468684 -0.002309916
0.11782788 -0.061760128 -0.079066694 -0.124756664 0.083464384 -0.09565312 -0.045651257 0.03607379
-0.0719319 -0.002993241 0.029118463 -0.019422546 -0.11092621 -0.10744572 0.0012790561 0.00022394955
0.02227056 -0.11986965 -0.11044875 -0.095218346 0.022771358 -0.062883645 -0.09739664 0.0023327172
0.015429348 -0.112752974 -0.009656802 0.015537232 0.046245188 -0.055278078 -0.022027016 -0.04421313
-0.01586011 -0.0654207 0.1111882 0.037350908 -0.03128548 0.033652484 0.10067704 0.03251636
0.055761173 -0.02435629 -0.052789375 0.04962814 0.10573766 -0.020504355 -0.03642881 0.075920284
-0.03113313 0.019398525 0.066850305 -0.08070496 -0.109797746 -0.043497965 -0.0885724 0.08613716
0.065137446 -0.09181668 0.1010392 -0.045631424 -0.061976835 -0.05710429 -0.027765557 -0.04187514
-0.011584357 0.052448586 -0.10816711 0.01826918 0.029021218 0.12941484 -0.0018463135 0.10068025
-0.041552357 -0.060679503 0.070405826 0.122631684 -0.07663628 0.039000206 0.042795196 -0.068719976
-0.14203428 0.15938963 -0.0061528157 -0.09863215 0.008810106 0.02774955 0.044765048 0.025366621
0.08121131 -0.14491722 -0.024432726 0.12240115 -0.044456553 0.11441849 -0.02990459 0.017519152
-0.13258006 -0.12720309 -0.024002219 0.02087416 0.112409376 0.015716404 -0.044223014 0.14972445
0.0020382823 0.12511379 -0.04990221 -0.11222028 0.025311872 -0.040740862 -0.04494644 0.026449492
0.08024635 -0.0012239185 0.022967715 -0.026262272 -0.121167704 -0.022131052 0.074110135 0.07547207
0.100325815 0.10542629 0.0815018 0.025953827 0.10757663 0.03976562 0.14440754 -0.107515775
00000000: 4513 ce3d 8661 b9bd 7588 14bd 3507 b13d
00000010: de39 c93d 527b a4bd ba75 973d 09ca ac3d
00000020: d836 97bd a20d d23c b0ca 203c 2e8e a9bd
00000030: 38c0 0a3e 7b43 e43d 28bb c73d 6282 d3bd
00000040: 2d67 613d 3a4b 42bd 784f 2b3c 00fa 0dbd
00000050: 32e9 dabd 67e0 ecbd 140e 323b 1659 5dbc
00000060: b023 783c 452b 183d 2826 bbbd 7bce 653d
00000070: 910c 73bd b2e8 ea3d b24d 753d 7e71 d13d
00000080: 3924 043e 4a2d 2c3e 19cd cdbc 8a31 e5bd
00000090: d9cd c3bd 5cb3 efbd 3771 113e 2c6f aebd
000000a0: 789d ffbc d9e8 b9bd 8d10 853d 2ea4 f0bd
000000b0: dd54 c03c b597 c83c f788 e63c 74b4 b9b8
000000c0: aa91 cf3d b68d 5b3d f812 cbbc b082 9a3c
000000d0: d492 ce3d 68dc 273d 0c61 2b3e 7bb5 c63d
000000e0: 1a5f 94ba 1232 3f3d d13f ac3d a6ce 00bd
000000f0: 87d5 413d 67db d0bc 1670 f3bd 192f d93c
00000100: 19b8 25bd 3648 aa3d 8a82 1fbe daf1 02be
00000110: b429 c6bd db0f 113e 2c5a 4ebd eeeb 19bc
00000120: e694 e63c e6da 523b b0bd 1ebc 000c 0abc
00000130: e6ec 59bd 5d34 aabd 44da 0f3d e78b 273e
00000140: df28 823d 786b cf3d 92e0 073e d2d6 90bd
00000150: 1175 9f3d eeca e43d dc1a f0bd a5ca b83d
00000160: dc34 b23d e79c 09be b829 1dbd fade e13d
00000170: f48e b43d ab3d 053e 428e 143e 0672 9bbb
00000180: 1353 05bd a130 babd 6b27 e33d b102 8a3c
00000190: 3b9c 05bd 822a b5bd d288 583c 5940 933d
000001a0: a257 97bd 9f68 ee3a 8317 97bd 83a2 80bb
000001b0: 915c aabc f381 fa3a 02ee e1bb 8415 f73d
000001c0: ba11 5dbd 3903 36bd 53d1 813c 4b5f c6bd
000001d0: a5db 7abd b0a1 423c 988a 45bd e013 8dbb
000001e0: 7aae 95bc 6a47 82bd 500a be3d 3c22 163e
000001f0: fa8d 333d 3e2b b0bd 1adb d13d f661 17bb
00000200: be4f f13d 30f8 7cbd b8ed a1bd 6c80 ffbd
00000210: 60ef aa3d c8e5 c3bd d0fc 3abd 1cc2 133d
00000220: 0851 93bd 402a 44bb d889 ee3c 081c 9fbc
00000230: 482d e3bd 800c dcbd 00a6 a73a 00d4 6a39
00000240: c070 b63c 387e f5bd f432 e2bd d601 c3bd
00000250: 008b ba3c 24c9 80bd e477 c7bd 80e0 183b
00000260: 60cb 7c3c 08eb e6bd 9037 1ebc e08f 7e3c
00000270: 986b 3d3d 446b 62bd 0072 b4bc d418 35bd
00000280: 10ed 81bc 4afb 85bd a4b6 e33d 44fd 183d
00000290: 3425 00bd 30d7 093d c42f ce3d e02f 053d
000002a0: d465 643d d886 c7bc ac39 58bd e046 4b3d
000002b0: fc8c d83d c0f8 a7bc 6036 15bd 187c 9b3d
000002c0: e80a ffbc a8e9 9e3c d0e8 883d a448 a5bd
000002d0: a4dd e0bd ec2a 32bd 7265 b5bd ae68 b03d
000002e0: c866 853d 620a bcbd a4ed ce3d 04e8 3abd
000002f0: 6cdb 7dbd 30e6 69bd 9874 e3bc 4485 2bbd
00000300: 51cc 3dbc 54d4 563d b886 ddbd 3fa9 953c
00000310: e8bd ed3c 5385 043e 0000 f2ba 7231 ce3d
00000320: ce32 2abd 128b 78bd ee30 903d 5226 fb3d
00000330: 7bf3 9cbd aebe 1f3d 044a 2f3d 0fbd 8cbd
00000340: 6f71 11be 0937 233e 8f9d c9bb a7ff c9bd
00000350: 4358 103c 0653 e33c 8e5b 373d a9cd cf3c
00000360: 1e52 a63d 2e65 14be 2427 c8bc 74ad fa3d
00000370: 1318 36bd 3e54 ea3d 79fa f4bc 5384 8f3c
00000380: 11c3 07be 8741 02be 4da0 c4bc 4900 ab3c
00000390: e336 e63d b0bf 803c 3123 35bd 5e51 193e
000003a0: b494 053b d41d 003e 4266 4cbd bfd3 e5bd
000003b0: d85a cf3c e4df 26bd c219 38bd 9bac d83c
000003c0: 3358 a43d e46b a0ba ca26 bc3c fa23 d7bc
000003d0: c626 f8bd 2e4c b5bc 0ec7 973d 1a91 9a3d
000003e0: 9f77 cd3d bde9 d73d 6aea a63d 1f9d d43c
000003f0: 2351 dc3d 46e1 223d 92df 133e 3b31 dcbd

l5.bias f4 [10]
0.011190555 0.03906885 -0.04986608 0.06551083 0.03865026 -0.09086475 0.04774123 0.047324188
-0.056660604 -0.03912464
00000000: 9758 373c a906 203d 6040 4cbd 8b2a 863d
00000010: bc4f 1e3d 4c17 babd 4f8c 433d 02d7 413d
00000020: f314 68bd 2941 20bd

l6.weight f4 [2, 10]
-0.060286023 -0.11747057 -0.2167573 -0.28292906 -0.1475041 0.29367948 -0.14963286 -0.19594626
0.0075581823 -0.20350906 -0.28194353 0.1683985 0.11021751 -0.071015395 -0.2865659 0.06680714
0.0107189575 0.04075872 0.17518327 -0.286149
00000000: 7aee 76bd 6994 f0bd a0f5 5dbe 14dc 90be
00000010: 510b 17be 285d 963e 5b39 19be 23a6 48be
00000020: a1aa f73b ae64 50be e75a 90be a870 2c3e
00000030: b8b9 e13d 8570 91bd c4b8 92be 2fd2 883d
00000040: 919e 2f3c 9ef2 263d 3e63 333e 1f82 92be

l6.bias f4 [2]
0.072149776 -0.11099944
00000000: 43c3 933d ad53 e3bd
